checkpoints/final.pt (torch_old, 8192 bytes, 5 tensors)

layers.0.weight f4 [40, 1]
-0.10803386 0.040189795 0.12915428 0.49685523 -0.5408041 0.0046554934 -0.59481275 0.44378945
0.44285798 0.83282185 -0.67331034 -0.43680662 0.49021477 0.059886955 -0.005288295 -0.14514844
-0.19082831 0.0062643434 0.25441092 -0.011753952 -0.8522749 -0.52321887 -0.9899245 -0.6332909
-0.8234231 0.5980148 -0.4218511 -0.12009923 0.18703954 0.56735754 -0.31159714 0.33276305
-0.038747106 0.91687095 0.525382 -0.93709 0.89476365 -0.0559857 0.047738552 -0.034749683
00000000: db40 ddbd 0e9e 243d 0541 043e cf63 fe3e
00000010: 2372 0abf 1c8d 983b a645 18bf 5f38 e33e
00000020: 48be e23e d033 553f 115e 2cbf 1ea5 dfbe
00000030: 6efd fa3e 064c 753d 6f49 adbb cba1 14be
00000040: 7f68 43be 1f45 cd3b 2642 823e a693 40bc
00000050: b02e 5abf acf1 05bf b16b 7dbf 5a1f 22bf
00000060: dbcb 52bf 7f17 193f defc d7be 96f6 f5bd
00000070: 4b87 3f3e 583e 113f a989 9fbe eb5f aa3e
00000080: 49b5 1ebd 0eb8 6a3f 6f7f 063f 21e5 6fbf
00000090: 3b0f 653f 4351 65bd 8089 433d af55 0ebd

layers.0.bias f4 [40]
-0.06073333 0.20840277 0.08166856 -0.29868266 -0.5106316 0.12805593 -1.3854755 -0.84568864
-0.49230272 -3.1239595 -2.2128613 -0.26178795 -1.5867934 0.075707294 0.0154697 0.26315105
0.07370729 -0.034419306 -0.115950994 0.060684472 -2.3887086 -1.2529143 -1.7044866 -0.36144134
-3.3385947 -0.96827954 0.18885376 0.35717905 -0.075303905 -2.4403365 0.10044193 -0.17814343
0.0941157 -2.4047384 -1.4337078 -1.1840343 -1.9324836 0.52808 -0.31232584 0.1871308
00000000: 83c3 78bd 8967 553e d941 a73d efec 98be
00000010: c1b8 02bf 1821 033e 4357 b1bf 0d7f 58bf
00000020: 1a0f fcbe f4ee 47c0 859f 0dc0 1209 86be
00000030: 0c1c cbbf 6d0c 9b3d a074 7d3c bcbb 863e
00000040: d9f3 963d 42fb 0cbd b777 edbd 4890 783d
00000050: 9ae0 18c0 7f5f a0bf 9e2c dabf d70e b9be
00000060: 89ab 55c0 2be1 77bf e162 413e 2ce0 b63e
00000070: ef38 9abd 792e 1cc0 80b4 cd3d 3b6b 36be
00000080: bbbf c03d 3ce7 19c0 bd83 b7bf 708e 97bf
00000090: 9f5b f7bf 4030 073f 2ce9 9fbe 379f 3f3e

layers.2.weight f4 [40, 40]
-0.048922263 -0.264828 0.016427286 -0.35654384 -0.18136065 0.29522473 -0.5970655 -0.4983177
-0.27202117 0.034156576 0.5825349 0.08173407 -0.015870677 -0.76207083 0.07505826 0.044278655
-0.76530284 0.724608 -0.5109126 0.954036 0.22716258 0.62827003 0.011076232 0.098612115
0.2918215 -0.49489704 0.30878156 -0.08929475 -0.390115 0.03913216 0.12818694 -0.34020817
0.060762767 -0.11168832 -0.17009342 0.1733289 -0.28486317 -1.0690001 -0.068929546 1.4362415
0.11024224 1.3340083 -7.6055307 -0.32466528 -0.19237827 1.1959832 -0.8129187 -0.07144495
-0.26215062 0.07254307 -1.0359907 0.12916073 0.10684131 -2.8173208 0.057998978 -0.22651695
-0.84349895 0.1727783 -1.089648 -0.41625363 -0.21985987 0.28057107 -0.43525088 -0.12684119
-2.7039976 -0.21156912 0.99140054 -0.61253715 -2.3944073 -0.10118675 0.457141 -0.63134474
0.36959222 -0.08677812 -0.11660722 -0.31025127 -0.121703885 -1.1315373 0.035540298 -0.33477
0.06934944 1.3229617 0.53255093 -0.12713945 -0.40564424 -0.12508604 -0.41391698 -0.7682853
-0.9679409 -1.318494 -0.6403801 0.056652173 -2.7562385 -0.04662799 0.025367893 -0.19417292
0.022332981 -0.8612487 0.80413103 0.36415353 0.49850187 1.556718 -0.20356159 -0.11588513
-1.3386683 -1.062403 0.465293 0.44305727 2.0207934 0.117428854 0.23411612 0.60867655
0.35781303 -0.7582929 0.4802914 -0.5105203 -1.0382824 -2.152506 -0.12119176 0.6152262
-0.20339097 0.45323387 -0.45513687 0.15911865 -0.30630177 -0.19277686 -0.039494865 -0.2545824
0.08837019 0.19856462 -0.16073206 -0.24813214 0.099650845 0.24974056 1.1988437 -1.1083677
0.654146 -0.09189038 0.24969313 -0.55325747 -0.09048628 -0.259507 -0.2740681 -0.22045141
-0.03883524 0.04102142 -0.8245741 -1.2893842 -0.05780743 0.42094445 -0.062239487 0.42884627
2.6734374 0.11655339 0.13537599 -0.031251814 0.0333614 0.12833804 -0.03473475 0.34944996
0.43077835 -3.027038 -4.1819415 -0.08832761 0.18272908 -2.6817765 -0.34949875 -0.030602902
0.0025790036 0.028703108 -0.36779162 0.37543607 0.02675791 -5.458239 -1.0596715 -0.0064413114
-1.3492252 -0.5171936 -0.2151014 -0.09166394 -0.6788675 -0.3983386 -0.2129559 0.3900254
-1.4031246 0.1289082 0.8473852 0.31913245 0.0029027313 -0.008602694 0.60039526 -0.0075528473
0.72277427 0.025256202 -0.092629075 0.07451724 0.062439784 -0.4241942 0.12891378 -0.9985125
0.034441926 0.026737582 -0.1596803 0.083210826 0.046083473 0.012507654 0.030487768 -0.03809824
0.056773152 -0.007890135 -0.09260899 -0.08706446 0.010497898 -0.09097742 -0.0619704 -0.17865208
-0.028925436 -0.060009837 0.062796205 -0.048417654 -0.022811726 -0.07922979 -0.0844847 0.10583008
-0.12298601 -0.18209843 -0.040868007 0.038859732 0.020405618 -0.11701368 -0.044404596 -0.056245714
0.09568884 -0.03467951 0.1290587 -0.00047766595 -0.12195834 -0.08390087 -0.13422634 0.0015554567
-0.007895847 -0.84023565 -0.20293576 0.19856994 -0.05890248 0.03906149 -0.0041697323 -0.12093271
0.39785248 -0.45485136 -0.0024323016 -0.09750645 0.16381471 0.09342205 0.37859887 -1.0412652
00000000: b662 48bd 8997 87be 8492 863c ea8c b6be
00000010: 9bb6 39be b227 973e 49d9 18bf 7f23 ffbe
00000020: 5c46 8bbe c4e7 0b3d 0221 153f 3164 a73d
00000030: 3903 82bc 1317 43bf 25b8 993d 895d 353d
00000040: e3ea 43bf e97f 393f 2bcb 02bf b43b 743f
00000050: 4f9d 683e 4ed6 203f 1679 353c 26f5 c93d
00000060: a169 953e 2563 fdbe 9e18 9e3e 2ae0 b6bd
00000070: 27bd c7be 0b49 203d 7043 033e c42f aebe
00000080: 61e2 783d d9bc e4bd f82c 2ebe 227d 313e
00000090: 96d9 91be ffd4 88bf ef2a 8dbd c3d6 b73f
000000a0: afc6 e13d c9c0 aa3f 8260 f3c0 873a a6be
000000b0: cffe 44be fa15 993f 711b 50bf bb51 92bd
000000c0: 9b38 86be 7691 943d 589b 84bf b642 043e
000000d0: 9ecf da3d fc4e 34c0 5690 6d3d 0ff4 67be
000000e0: 8cef 57bf cbec 303e 9679 8bbf 321f d5be
000000f0: f222 61be 03a7 8f3e 34d9 debe a8e2 01be
00000100: 4c0e 2dc0 93a5 58be 6dcc 7d3f 3ccf 1cbf
00000110: f83d 19c0 003b cfbd 630e ea3e cf9f 21bf
00000120: 313b bd3e bab8 b1bd c4cf eebd 41d9 9ebe
00000130: e33f f9bd 37d6 90bf b492 113d f966 abbe
00000140: 1407 8e3d cf56 a93f 4255 083f d830 02be
00000150: 9ab0 cfbe 8e16 00be edec d3be 58ae 44bf
00000160: faca 77bf 69c4 a8bf f3ef 23bf 1c0c 683d
00000170: 3666 30c0 fefc 3ebd 54d0 cf3c 44d5 46be
00000180: a8f3 b63c cb7a 5cbf 88db 4d3f 5572 ba3e
00000190: a33b ff3e 8942 c73f 7372 50be 2f55 edbd
000001a0: 7c59 abbf d2fc 87bf e23a ee3e 67d8 e23e
000001b0: ae54 0140 8a7e f03d 23bc 6f3e 3ad2 1b3f
000001c0: 4533 b73e 7c1f 42bf c1e8 f53e 75b1 02bf
000001d0: 70e6 84bf a9c2 09c0 6333 f8bd 777f 1d3f
000001e0: b945 50be 450e e83e b307 e9be 00f0 223e
000001f0: 96d3 9cbe 4c67 45be 5ec5 21bd a058 82be
00000200: 6efb b43d 8654 4b3e f296 24be 5a16 7ebe
00000210: be15 cc3d fdbb 7f3e b673 993f fede 8dbf
00000220: 1d76 273f 0631 bcbd 8eaf 7f3e 48a2 0dbf
00000230: df50 b9bd 1ade 84be a752 8cbe 04be 61be
00000240: b311 1fbd 1406 283d 4a17 53bf 8b0a a5bf
00000250: 7cc7 6cbd 0886 d73e d5ee 7ebd bd91 db3e
00000260: 9919 2b40 8bb3 ee3d 01a0 0a3e e701 00bd
00000270: f7a5 083d 0c6b 033e 0646 0ebd 1beb b23e
00000280: fb8e dc3e feba 41c0 77d2 85c0 1be5 b4bd
00000290: 551d 3b3e 3aa2 2bc0 80f1 b2be f0b2 fabc
000002a0: 8004 293b c822 eb3c 2f4f bcbe 2839 c03e
000002b0: 6833 db3c e5a9 aec0 51a3 87bf a311 d3bb
000002c0: 69b3 acbf cd66 04bf 8b43 5cbe 4eba bbbd
000002d0: 43ca 2dbf 09f3 cbbe 1d11 5abe 69b1 c73e
000002e0: 9699 b3bf 8300 043e 3dee 583f 5465 a33e
000002f0: c03b 3e3b 50f2 0cbc 81b3 193f e07d f7bb
00000300: bc07 393f 18e6 ce3c 50b4 bdbd 7f9c 983d
00000310: dcc0 7f3d fb2f d9be f901 043e 849e 7fbf
00000320: fa12 0d3d c608 db3c 3c83 23be 706a aa3d
00000330: 06c2 3c3d e7ec 4c3c 7cc1 f93c e60c 1cbd
00000340: f78a 683d a045 01bc c8a9 bdbd da4e b2bd
00000350: 60ff 2b3c 5f52 babd add4 7dbd 92f0 36be
00000360: 09f5 ecbc e0cc 75bd 4c9b 803d 9751 46bd
00000370: a8df babc 3a43 a2bd 5006 adbd 71bd d83d
00000380: 17e0 fbbd 0378 3abe 3665 27bd 622b 1f3d
00000390: af29 a73c dea4 efbd 98e1 35bd e861 66bd
000003a0: 83f8 c33d 1a0c 0ebd f727 043e 3d6f fab9
000003b0: 4bc5 f9bd 38d4 abbd a172 09be 77e0 cb3a
000003c0: 955d 01bc af19 57bf 64ce 4fbe eb55 4b3e
000003d0: ba43 71bd f1fe 1f3d 40a2 88bb 92ab f7bd
000003e0: 52b3 cb3e 47e2 e8be 4067 1fbb 76b1 c7bd
000003f0: 0bbf 273e 0f54 bf3d b6d7 c13e 2e48 85bf

layers.2.bias f4 [40]
-1.4523437 0.74514943 0.6356944 -1.4281782 0.21620248 -0.15193008 -0.07053063 0.5309158
-0.22753051 -0.051138837 -0.9269407 0.38123482 -0.12369109 -2.1673954 0.5391646 -1.7857062
0.27930948 -0.026329303 -0.10739601 -0.63588977 0.30696917 -0.11848742 -0.13261586 -1.3358679
-0.052614424 -0.051549356 -0.59881467 0.5464007 0.091831595 -0.004822268 -0.19140086 -1.2167072
-0.13286306 -0.10333244 -0.71569157 -0.09271066 0.8002184 0.45138225 0.009334873 0.67907405
00000000: 66e6 b9bf 1dc2 3e3f debc 223f 8bce b6bf
00000010: 2f64 5d3e 8f93 1bbe 5d72 90bd 19ea 073f
00000020: c2fd 68be f576 51bd fc4b 6dbf 3631 c33e
00000030: c151 fdbd 9bb6 0ac0 b106 0a3f 0592 e4bf
00000040: a701 8f3e 8db0 d7bc 70f2 dbbd acc9 22bf
00000050: 102b 9d3e 88a9 f2bd 74cc 07be b8fd aabf
00000060: 3982 57bd 6b25 53bd eb4b 19bf ebe0 0b3f
00000070: 3412 bc3d 1e04 9ebb 96fe 43be 10bd 9bbf
00000080: 410d 08be f59f d3bd 9037 37bf 16df bdbd
00000090: 1ddb 4c3f 931b e73e 4cf1 183c ccd7 2d3f

layers.4.weight f4 [1, 40]
0.18921106 -0.7560425 -0.54837066 0.47724137 -0.31120604 -0.0076193423 0.014072402 0.7653305
0.6996148 -0.12989184 -0.271226 -0.47999936 0.02729887 0.6040571 -0.107144706 0.8915961
-0.39153042 0.042319555 -2.9528894 -0.38584653 -0.26666918 0.013766316 0.009843738 -0.71147305
-2.0627267 -0.020046428 -0.57715076 -0.4413416 -0.5487943 -0.36796686 0.13864261 0.3590816
-0.072738715 -0.053926587 0.014132467 -0.025121378 0.8036156 0.5855576 0.47012448 1.3769456
00000000: 8bc0 413e 008c 41bf 0562 0cbf fb58 f43e
00000010: 6656 9fbe adab f9bb ef8f 663c b3ec 433f
00000020: f519 333f 5e02 05be 22de 8abe 7ac2 f5be
00000030: e1a1 df3c 7ca3 1a3f af6e dbbd a43f 643f
00000040: ad76 c8be 4557 2d3d 24fc 3cc0 ad8d c5be
00000050: dd88 88be 1d8c 613c a147 213c 1923 36bf
00000060: b703 04c0 6838 a4bc 27c0 13bf 87f7 e1be
00000070: c97d 0cbf 2766 bcbe 54f8 0d3e 8bd9 b73e
00000080: 09f8 94bd 20e2 5cbd dd8b 673c 59cb cdbc
00000090: c1b9 4d3f 1ae7 153f 28b4 f03e c13f b03f
