checkpoints/iter_70000.pt (torch_old, 8192 bytes, 5 tensors)

layers.0.weight f4 [40, 1]
000000 b6 07 7c be 67 f8 69 3c 1d b2 f7 3d e2 32 fa 3e
       -0.24612316 0.014280415 0.12094519 0.48866946
000010 63 83 02 bf 4a 35 e3 3c 90 23 0e bf 0d 16 d1 3e
       -0.5098173 0.027735371 -0.55523014 0.40837136
000020 7a 2f eb 3e 5a af 4b 3f ad 51 15 bf a5 a9 0e bf
       0.4593466 0.7956444 -0.5832775 -0.55727607
000030 85 79 f0 3e 02 8a 7c 3d 40 4a b9 bc 54 75 03 be
       0.46967712 0.061655052 -0.022618413 -0.12837726
000040 db 5b 28 be 1f 45 cd 3b 40 8a 72 3e f3 6c 3a bd
       -0.1644129 0.0062643434 0.2368555 -0.04551406
000050 ef 49 3c bf 78 d8 d5 be ff 15 6a bf 9e d5 26 bf
       -0.73550314 -0.41766715 -0.91439813 -0.65169704
000060 d6 ad 3d bf 04 37 15 3f da 57 ab be b2 59 04 be
       -0.7409338 0.5828707 -0.33465463 -0.12924841
000070 d9 e0 52 3e 9a ba 0a 3f 95 cf a5 be 00 97 99 3e
       0.20593585 0.5419098 -0.32384935 0.29998016
000080 00 a4 0d bd 2c c7 57 3f 9a 53 0a 3f 78 00 62 bf
       -0.03458023 0.8428829 0.54033816 -0.88281965
000090 cd 2d 58 3f dd 21 a5 3a 80 89 43 3d 30 9c bf bc
       0.84444886 0.0012598593 0.047738552 -0.023389906

layers.0.bias f4 [40]
000000 6d a3 e1 bd 8b 32 8a 3e 6b 78 ff 3d 12 f5 a9 be
       -0.11017499 0.26991686 0.1247414 -0.33194786
000010 f1 55 11 bf f6 39 b2 3d f8 13 b1 bf 2e d9 4c bf
       -0.5677176 0.087024614 -1.3834219 -0.8001889
000020 82 a2 03 bf ae e0 3f c0 a0 65 01 c0 45 2b b4 be
       -0.5141984 -2.9980884 -2.0218277 -0.35189262
000030 83 55 c3 bf ab f3 0a 3e b1 f9 ba 3d 19 b3 81 3e
       -1.5260471 0.13569514 0.09129656 0.25331953
000040 b7 51 a5 3d 42 fb 0c bd 71 86 e3 bd 05 e4 26 3e
       0.080722265 -0.034419306 -0.11109627 0.1629792
000050 d1 8c 0d c0 ae 0d 9b bf 40 d2 e7 bf 66 c8 f0 be
       -2.2117198 -1.211355 -1.8111038 -0.47027892
000060 2b b4 46 c0 be 39 7c bf 0a 88 15 3e 7b bb dc 3e
       -3.1047466 -0.9852561 0.14602676 0.43111786
000070 8d 61 62 3c 3d c0 0c c0 be 84 e0 3d bb 63 31 be
       0.013817203 -2.1992333 0.109628186 -0.173232
000080 9c 33 d0 3d e7 a0 16 c0 4d 8d ab bf 54 f2 a7 bf
       0.10166094 -2.3535707 -1.3402497 -1.3120828
000090 99 a2 f5 bf aa 2d 09 3f 2c e9 9f be aa 6b 03 3e
       -1.9190246 0.535853 -0.31232584 0.1283404

layers.2.weight f4 [40, 40]
000000 23 0d 9f bd 85 f1 ef be 0b 07 74 3e fc 59 6c be
       -0.077661775 -0.46863952 0.23830812 -0.23081201
000010 20 b3 0b be 8b c9 76 bf d7 4b dd be c4 4d d0 be
       -0.1364255 -0.9640128 -0.43221924 -0.4068433
000020 43 a7 16 be c4 e7 0b 3d 4c 1b 7c 3e 5b ce b9 3d
       -0.14712243 0.034156576 0.24619788 0.09072562
000030 39 03 82 bc da fa 0f bf 49 22 40 bf bd a7 50 3e
       -0.015870677 -0.56242144 -0.75052315 0.20376487
000040 c5 d1 73 bf e9 7f 39 3f f7 2b c5 be e2 e4 cf 3e
       -0.9524196 0.724608 -0.38510105 0.4060431
000050 6a 82 7c 3e 8a 99 31 3f 8d 5e f6 3d 10 93 25 3e
       0.24659124 0.69374907 0.12029753 0.16169381
000060 d4 81 04 3e 3c c5 cd be f9 7d 97 3e df 70 5f 3d
       0.1294015 -0.4018954 0.29588297 0.054551
000070 bd 3b 87 be 68 59 f4 3b f8 1f 34 bc 1e 8c 5b be
       -0.26412764 0.007456947 -0.01099395 -0.21440169
000080 ee 38 1a be 4f e1 12 be 9f e8 3c be 3f c5 6c 3e
       -0.1506078 -0.14343761 -0.18448113 0.23122118
000090 07 4e 83 be ae b7 83 bf ef 2a 8d bd 4e 5d ab 3f
       -0.25645468 -1.029043 -0.068929546 1.3387849
0000a0 35 bd 83 3e d0 53 5c 3f 3b 1e bd c0 c9 79 10 3e
       0.2573029 0.8606539 -5.9099402 0.14108957
0000b0 e5 81 90 bd 86 59 35 3e 3e 33 28 bf 1d dd f1 3c
       -0.070560254 0.17709932 -0.6570319 0.02952438
0000c0 ed 18 db bb 76 91 94 3d 37 af a0 bf 2a 85 85 3e
       -0.006686321 0.07254307 -1.2553471 0.2607816
0000d0 9e cf da 3d 52 83 ed bf 68 1d 20 bf 48 cd 0c be
       0.10684131 -1.8555701 -0.6254487 -0.13750184
0000e0 79 e6 c0 bf cb ec 30 3e 72 e0 ea be e6 ea d0 bd
       -1.5070335 0.1727783 -0.45874363 -0.10201053
0000f0 69 77 fd be 46 c5 58 be a7 7d c6 be b7 22 31 3c
       -0.49505165 -0.21169004 -0.3876774 0.010811499
000100 ae fa 2f c0 00 82 b4 bd 2d 88 6d 3f f5 88 74 3c
       -2.7496753 -0.08813858 0.9278591 0.014925231
000110 90 24 d0 bf 00 3b cf bd a1 5b c6 3e b9 2f 03 be
       -1.6261158 -0.10118675 0.38741782 -0.12811173
000120 1b e4 b5 3e ba b8 b1 bd 0b c4 ad bd c9 85 6f be
       0.35525593 -0.08677812 -0.08484658 -0.23390879
000130 6f a8 9e bd 76 de 42 bf b4 92 11 3d bc 58 7e be
       -0.0774697 -0.761207 0.035540298 -0.24838537
000140 3b f4 4d 3e 11 f4 5e 3f 8b 30 1f 3f 99 31 86 be
       0.20112698 0.87091166 0.62183446 -0.26209715
000150 3d c5 21 be 90 b9 d8 bd 0e 20 0a bf 31 63 46 bf
       -0.15797897 -0.10582268 -0.5395516 -0.77495104
000160 d0 65 60 bf 64 05 ac bf 52 ba 06 bf cc 2d 69 3e
       -0.87655354 -1.3439145 -0.5262805 0.22771376
000170 b7 9a 4b c0 07 09 b5 3e 02 39 0a bf 7d ff 14 bd
       -3.181318 0.3535845 -0.53993237 -0.036376465
000180 a8 14 07 bf cb 7a 5c bf 06 63 cb 3e 58 99 c2 3e
       -0.52765894 -0.8612487 0.39723986 0.38007617
000190 47 7c 2e 3e 41 71 5d 3f 45 0c 6b be 22 75 2d 3d
       0.17039596 0.86500937 -0.22953899 0.042348035
0001a0 f8 e8 05 c0 1b 17 7c bf 24 fc 05 3f d9 cd 88 3d
       -2.0923443 -0.98472756 0.5233786 0.06679887
0001b0 30 d1 e7 3f f0 8b 77 3e fc a0 af 3e 42 1a c1 3e
       1.8110714 0.24174476 0.3430251 0.37715346
0001c0 a6 de 06 3f 34 cb 78 bf f4 59 a3 3e a2 5d a0 be
       0.52683485 -0.97185063 0.31904566 -0.31321436
0001d0 ff 0c 92 bf 39 99 04 c0 63 33 f8 bd 86 aa 0f 3f
       -1.1410216 -2.071852 -0.12119176 0.56119573
0001e0 b9 45 50 be 4f 04 3d 3f c0 35 9e be 85 8b 69 3d
       -0.20339097 0.738347 -0.30900383 0.05701782
0001f0 96 d3 9c be b5 c0 5d 3e 5e c5 21 bd aa 7d 63 be
       -0.30630177 0.21655543 -0.039494865 -0.22215906
000200 ba f9 cc 3c 18 d6 72 3e f2 96 24 be 5a 16 7e be
       0.025021423 0.23714483 -0.16073206 -0.24813214
000210 b0 28 ab 3e a6 14 6f 3e 89 aa 91 3f 4a d0 10 bf
       0.3342948 0.2334772 1.1380168 -0.56567824
000220 1e 90 d6 3e 06 31 bc bd bc 81 1f 3e e1 6b 7a bf
       0.41906828 -0.09189038 0.15576833 -0.9782086
000230 df 50 b9 bd 1a de 84 be a7 52 8c be 04 be 61 be
       -0.09048628 -0.259507 -0.2740681 -0.22045141
000240 b3 11 1f bd c8 f6 7d 3d 4a 17 53 bf 64 14 31 bf
       -0.03883524 0.062002927 -0.8245741 -0.6917174
000250 86 58 5e bd 9b ed 41 3f d5 ee 7e bd e1 68 a2 3e
       -0.05428364 0.7575318 -0.062239487 0.3172064
000260 40 be 00 40 c2 01 bf 3d 28 67 b7 3d e7 01 00 bd
       2.011612 0.09326507 0.08955222 -0.031251814
000270 ea e7 3f 3d 7b 17 84 be 06 46 0e bd bf 70 62 3e
       0.04685203 -0.25799164 -0.03473475 0.22113322
000280 b2 b8 0e 3e 43 37 33 c0 8e 65 86 c0 1b e5 b4 bd
       0.13937643 -2.800248 -4.199897 -0.08832761
000290 c6 dd 63 3e 5e e2 69 c0 fe c3 b5 bd f0 b2 fa bc
       0.22252569 -3.6544414 -0.08875273 -0.030602902
0002a0 80 04 29 3b c8 22 eb 3c 5e 7d 91 be 93 ef 58 3e
       0.0025790036 0.028703108 -0.2841596 0.2118514
0002b0 68 33 db 3c 0b 96 72 c0 e3 b8 ef bf fa 1a 20 be
       0.02675791 -3.790408 -1.8728298 -0.1563529
0002c0 f3 a0 90 bf cd 66 04 bf 8b 43 5c be 46 e7 dc 3e
       -1.1299118 -0.5171936 -0.2151014 0.43145198
0002d0 88 fe f4 be 62 ac f0 bd eb 9a a7 bd ac c0 b2 3e
       -0.47850442 -0.117516294 -0.08183845 0.34912622
0002e0 53 b1 b2 bf 83 00 04 3e 52 d7 dd 3e 52 bf 1f 3f
       -1.3960365 0.1289082 0.4332834 0.62401307
0002f0 c0 3b 3e 3b 50 f2 0c bc bd 53 d0 3d e0 7d f7 bb
       0.0029027313 -0.008602694 0.10172222 -0.0075528473
000300 ea fe 87 3e 18 e6 ce 3c 50 b4 bd bd 4f c0 03 3e
       0.26561671 0.025256202 -0.092629075 0.12866329
000310 dc c0 7f 3d a2 86 4c be f9 01 04 3e ab db 2f bf
       0.062439784 -0.19973233 0.12891378 -0.6869456
000320 fa 12 0d 3d c6 08 db 3c 3c 83 23 be 70 6a aa 3d
       0.034441926 0.026737582 -0.1596803 0.083210826
000330 06 c2 3c 3d e7 ec 4c 3c 7c c1 f9 3c e6 0c 1c bd
       0.046083473 0.012507654 0.030487768 -0.03809824
000340 f7 8a 68 3d a0 45 01 bc c8 a9 bd bd da 4e b2 bd
       0.056773152 -0.007890135 -0.09260899 -0.08706446
000350 60 ff 2b 3c 5f 52 ba bd ad d4 7d bd 92 f0 36 be
       0.010497898 -0.09097742 -0.0619704 -0.17865208
000360 09 f5 ec bc e0 cc 75 bd 4c 9b 80 3d 97 51 46 bd
       -0.028925436 -0.060009837 0.062796205 -0.048417654
000370 a8 df ba bc 3a 43 a2 bd 50 06 ad bd 71 bd d8 3d
       -0.022811726 -0.07922979 -0.0844847 0.10583008
000380 17 e0 fb bd 03 78 3a be 36 65 27 bd 62 2b 1f 3d
       -0.12298601 -0.18209843 -0.040868007 0.038859732
000390 af 29 a7 3c de a4 ef bd 98 e1 35 bd e8 61 66 bd
       0.020405618 -0.11701368 -0.044404596 -0.056245714
0003a0 83 f8 c3 3d 1a 0c 0e bd f7 27 04 3e 3d 6f fa b9
       0.09568884 -0.03467951 0.1290587 -0.00047766595
0003b0 4b c5 f9 bd 38 d4 ab bd a1 72 09 be 77 e0 cb 3a
       -0.12195834 -0.08390087 -0.13422634 0.0015554567
0003c0 95 5d 01 bc 42 49 3d 3c c9 ad 4d bd b4 26 7d 3e
       -0.007895847 0.011553111 -0.050214563 0.24721795
0003d0 ba 43 71 bd 07 72 48 3e 40 a2 88 bb ba 89 84 be
       -0.05890248 0.19574748 -0.0041697323 -0.25886327
0003e0 e9 78 a9 3e 36 e2 91 be 40 67 1f bb 76 b1 c7 bd
       0.3310006 -0.28492898 -0.0024323016 -0.09750645
0003f0 b5 95 81 3e 63 44 e8 3d ad 8f c3 3e ac ad 94 bf
       0.2530953 0.11341169 0.38195553 -1.16155

layers.2.bias f4 [40]
000000 a3 3f 9f bf 85 2e 3f 3f f5 fb 24 3f 21 0f ab bf
       -1.2441295 0.7468036 0.64446956 -1.3363992
000010 08 b3 40 3e 8f 93 1b be 97 89 05 3e c5 96 df 3e
       0.18818295 -0.15193008 0.13040768 0.43669716
000020 fd 10 35 bc f5 76 51 bd 88 09 52 bf 04 8b b8 3e
       -0.011051414 -0.051138837 -0.82045794 0.3604356
000030 c1 51 fd bd a1 89 f4 bf 7b 69 14 3f e9 1a ce bf
       -0.12369109 -1.9104501 0.5797345 -1.6101962
000040 76 6c 2a 3e 8d b0 d7 bc af 29 45 be 6e 51 00 bf
       0.16642937 -0.026329303 -0.19254182 -0.5012425
000050 9f b6 8e 3e 88 a9 f2 bd 69 9f ce bd 95 c1 86 bf
       0.27873704 -0.11848742 -0.10088999 -1.0527827
000060 78 af 4f bd 6b 25 53 bd 9c e9 a3 be 9b cb 43 3f
       -0.05070445 -0.051549356 -0.32014167 0.7648255
000070 d7 c2 c5 bd 5e 3f e8 bd 45 fd e8 3d 30 14 94 bf
       -0.096563034 -0.11340211 0.11376432 -1.1568661
000080 f6 ae 02 be f5 9f d3 bd 4c 66 1a bf 16 df bd bd
       -0.12762055 -0.10333244 -0.6031234 -0.09271066
000090 5b ec 49 3f dc 71 05 3e a1 ab 8d bc b8 f4 0a 3f
       0.78876275 0.13031715 -0.017293753 0.5427966

layers.4.weight f4 [1, 40]
000000 57 3a 62 3e f3 7e 36 bf c3 b1 db be da 76 0f 3f
       0.22092567 -0.7128746 -0.4290906 0.5604073
000010 d0 f2 c3 be ad ab f9 bb da 24 10 be 67 7b 3a 3f
       -0.3827119 -0.0076193423 -0.14076558 0.7284455
000020 d2 d1 51 3f 5e 02 05 be 05 d1 12 bf 66 76 11 bf
       0.81960785 -0.12989184 -0.5735019 -0.56821287
000030 e1 a1 df 3c f9 eb 0c 3f 4c 6b 49 be 4d 72 16 3f
       0.02729887 0.55047566 -0.19669837 0.5876816
000040 c9 0e d7 be 45 57 2d 3d 5e 96 37 c0 ff 4b 0d bf
       -0.42003468 0.042319555 -2.8685527 -0.55194086
000050 d5 52 97 be 1d 8c 61 3c cf 77 27 3d ca 1a 87 be
       -0.29555383 0.013766316 0.040885743 -0.26387626
000060 e3 f4 c8 bf 68 38 a4 bc 6b 84 14 bf ab bb 03 bf
       -1.5699733 -0.020046428 -0.58014554 -0.51458234
000070 a2 6a 93 bf fe 5f d9 be 8d 7a 04 be e3 1d 23 3f
       -1.1516917 -0.4245605 -0.12937374 0.6371748
000080 f4 e3 b7 bd 20 e2 5c bd cb 3e e7 3b 59 cb cd bc
       -0.089790255 -0.053926587 0.007057046 -0.025121378
000090 f0 cb 55 3f 4e 9e af 3c 20 64 09 3f 79 f4 a9 3f
       0.8351431 0.02143779 0.53668404 1.3277732
