checkpoints/iter_30000.pt (torch_old, 8192 bytes, 5 tensors)

layers.0.weight f4 [40, 1]
-0.3156352 0.042718314 0.13640624 0.49332517 -0.4376566 0.028494833 -0.50636184 0.35660022
0.5046398 0.6794678 -0.48051646 -0.59140086 0.40858802 0.103642374 0.038566638 -0.037140045
-0.1710708 0.070847295 0.22694825 -0.07129387 -0.59786004 -0.30468094 -0.803533 -0.5767176
-0.6837982 0.6034505 -0.091428824 -0.11952883 0.27089536 0.41709867 -0.33342457 0.40487617
-0.08790532 0.7550642 0.41176602 -0.77374345 0.75153583 0.06297094 0.047738552 -0.052682556
00000000: f09a a1be 66f9 2e3d 14ae 0b3e 1e95 fc3e
00000010: 8714 e0be ff6d e93c eea0 01bf 4e94 b63e
00000020: 1330 013f 9af1 2d3f 4106 f6be 0c66 17bf
00000030: 7332 d13e 7442 d43d 0df8 1d3d 2920 18bd
00000040: 2f2d 2fbe 6318 913d 1f65 683e 8502 92bd
00000050: 5b0d 19bf 24ff 9bbe 57b4 4dbf c4a3 13bf
00000060: 660d 2fbf bb7b 1a3f 093f bbbd 88cb f4bd
00000070: ccb2 8a3e f58d d53e a0b6 aabe ee4b cf3e
00000080: b407 b4bd e34b 413f ffd2 d23e 0d14 46bf
00000090: a764 403f e8f6 803d 8089 433d aac9 57bd

layers.0.bias f4 [40]
-0.24706663 0.38136625 0.19813228 -0.5134448 -0.66981006 0.14206026 -1.2876307 -0.7404097
-0.58313686 -2.497623 -1.5602375 -0.47990397 -1.2923996 0.24378946 0.18703036 0.3143836
0.064209476 -0.099690035 -0.168394 0.32136846 -1.7776412 -0.85408336 -1.7801795 -0.69026583
-2.6304512 -1.0453933 0.3174485 0.6902666 0.053133897 -1.705863 -0.062381983 -0.3059739
0.4811822 -2.1171024 -1.2408581 -1.4156832 -1.849466 0.60864973 -0.31232584 0.20236047
00000000: 09ff 7cbe 7042 c33e 30e3 4a3e 1e71 03bf
00000010: ac78 2bbf 3f78 113e 15d1 a4bf 7d8b 3dbf
00000020: 7548 15bf 0ed9 1fc0 ddb5 c7bf f9b5 f5be
00000030: 5a6d a5bf f2a3 793e e384 3f3e e3f6 a03e
00000040: 4280 833d 4a2a ccbd 7a6f 2cbe 688a a43e
00000050: bf89 e3bf 35a5 5abf ecdc e3bf 43b5 30bf
00000060: 5059 28c0 73cf 85bf 9c88 a23e 50b5 303f
00000070: eea2 593d b859 dabf 4084 7fbd 9ca8 9cbe
00000080: 835d f63e 9b7e 07c0 70d4 9ebf 1b35 b5bf
00000090: 4dbb ecbf 78d0 1b3f 2ce9 9fbe 9537 4f3e

layers.2.weight f4 [40, 40]
-0.0016106914 -0.41694546 -0.04588754 -0.08355763 -0.05410837 -0.80876094 -0.3286679 -0.25877178
-0.0006722674 0.05147593 0.2931557 0.14519423 0.008345938 -0.33416033 -0.48679563 0.21683699
-0.64603394 0.06695546 -0.24050842 0.078475565 0.30198586 0.65498585 0.18185826 0.20199896
0.49261352 -0.25578982 -0.08893115 -0.31799212 -0.11539358 0.023715775 -0.01115647 -0.06968571
0.032704763 -0.060525116 -0.06869061 0.30594167 -0.123881996 -1.5020852 -0.068929546 0.9801555
0.26683313 -0.28581223 -2.6531281 0.14108957 0.060166165 -1.0484601 -0.5970881 0.02952438
-0.006686321 0.07254307 -0.19446295 0.26462305 0.10684131 -1.3722441 -1.3540814 0.3459668
-1.073816 0.07084988 -0.45874363 0.46573746 -0.3081829 -0.08262188 -0.17214464 0.068478875
-0.9934101 -0.08813858 0.2529648 0.020832097 -0.40891418 -0.10118675 -0.062773824 -0.12811173
0.53293276 -0.08677812 -0.08484658 -0.07225772 -0.0774697 -0.8724288 0.035540298 0.06863177
0.155017 0.3832964 0.31043527 -0.41809353 0.03968936 0.0408089 -0.86393625 -0.35782176
-0.58118033 -0.7147799 -0.80172443 0.20894814 -1.2051189 0.5551413 -0.06197106 0.14406784
-0.6106869 -1.6859765 -0.0074241264 0.34340703 -0.41143486 0.3654415 -0.16111965 0.15493633
-2.0699463 -0.41633323 0.021809565 -0.30419594 0.9287312 0.16756575 0.021508794 0.18410343
0.6413787 -0.78522795 -0.25207657 -0.13636182 -0.9637758 -1.9296283 -0.12119176 0.8663645
-0.062742114 0.46028322 -0.03156146 0.06201606 -0.16892043 0.27342364 0.084347636 -0.20042019
0.011707026 0.085596405 -0.040134706 -0.10727757 -0.15355122 0.08379838 0.24911739 -0.57258135
0.14660303 -0.527585 0.12130768 -0.9955884 0.03271083 -0.12864959 -0.14433648 -0.07897284
0.08478374 0.12427595 -0.6750672 -2.4189498 0.15397283 -0.2758986 0.07875424 0.2825789
0.048946887 0.08311122 0.26338005 0.10432481 0.063370936 -0.36001128 -0.03473475 0.18333325
0.09519557 -1.5912665 -2.518556 -0.08832761 0.0816707 -3.34407 -0.26455894 -0.030602902
0.0025790036 0.028703108 -0.36755118 0.17343482 0.02675791 -3.764368 -2.599184 0.16263032
-0.71673757 -0.14003381 -0.2151014 0.38306284 -0.615529 -0.16861993 -0.085701704 0.25714353
-0.98425543 0.1289082 0.3408283 0.50216854 0.0029027313 -0.008602694 -0.10682309 -0.0075528473
0.33105832 0.025256202 -0.092629075 0.059250575 0.062439784 -0.8478581 0.12891378 0.24232087
0.034441926 0.026737582 -0.1596803 0.083210826 0.046083473 0.012507654 0.030487768 -0.03809824
0.056773152 -0.007890135 -0.09260899 -0.08706446 0.010497898 -0.09097742 -0.0619704 -0.17865208
-0.028925436 -0.060009837 0.062796205 -0.048417654 -0.022811726 -0.07922979 -0.0844847 0.10583008
-0.12298601 -0.18209843 -0.040868007 0.038859732 0.020405618 -0.11701368 -0.044404596 -0.056245714
0.09568884 -0.03467951 0.1290587 -0.00047766595 -0.12195834 -0.08390087 -0.13422634 0.0015554567
-0.007895847 0.20842609 -0.06603762 0.138816 -0.05890248 0.13475579 -0.0041697323 -0.09858514
0.22024666 -0.49477273 -0.0024323016 -0.09750645 -0.0197493 -0.13786355 0.13873497 -1.057532
00000000: d61d d3ba e079 d5be 93f4 3bbd 4320 abbd
00000010: bda0 5dbd f50a 4fbf 2947 a8be bc7d 84be
00000020: 1a3b 30ba 6dd8 523d 8118 963e ccad 143e
00000030: 67bd 083c 1017 abbe 473d f9be 840a 5e3e
00000040: 7b62 25bf f21f 893d d747 76be ccb7 a03d
00000050: e49d 9a3e 27ad 273f 0d39 3a3e d1d8 4e3e
00000060: d737 fc3e e2f6 82be 8921 b6bd ddcf a2be
00000070: 7853 ecbd 9647 c23c a0c9 36bc 62b7 8ebd
00000080: 6ef5 053d 2fe9 77bd aaad 8cbd 63a4 9c3e
00000090: d8b5 fdbd 5444 c0bf ef2a 8dbd 79eb 7a3f
000000a0: 5a9e 883e fb55 92be dacc 29c0 c979 103e
000000b0: cc70 763d f133 86bf c4da 18bf 1ddd f13c
000000c0: ed18 dbbb 7691 943d 4c21 47be ac7c 873e
000000d0: 9ecf da3d b2a5 afbf 8a52 adbf 8f22 b13e
000000e0: cd72 89bf be19 913d 72e0 eabe 2475 ee3e
000000f0: 26ca 9dbe a935 a9bd af46 30be a73e 8c3d
00000100: 2050 7ebf 0082 b4bd 9a84 813e 13a8 aa3c
00000110: 335d d1be 003b cfbd 908f 80bd b92f 03be
00000120: 486e 083f bab8 b1bd 0bc4 adbd dbfb 93bd
00000130: 6fa8 9ebd 7e57 5fbf b492 113d d08e 8c3d
00000140: c7bc 1e3e 6d3f c43e 5ff1 9e3e 5b10 d6be
00000150: 4f91 223d 3c27 273d ed2a 5dbf 6a34 b7be
00000160: 3cc8 14bf d1fb 36bf d03d 4dbf 80f6 553e
00000170: 5641 9abf be1d 0e3f 5ed5 7dbd 8586 133e
00000180: fa55 1cbf 14ce d7bf 1646 f3bb 0cd3 af3e
00000190: 97a7 d2be 261b bb3e 8dfc 24be a1a7 1e3e
000001a0: 007a 04c0 a129 d5be f9a9 b23c 92bf 9bbe
000001b0: 54c1 6d3f 5b96 2b3e 3633 b03c 9c85 3c3e
000001c0: 6531 243f b304 49bf 2e10 81be 6fa2 0bbe
000001d0: 03ba 76bf 0ffe f6bf 6333 f8bd 10ca 5d3f
000001e0: f07e 80bd 3eaa eb3e 9746 01bd 8d04 7e3d
000001f0: 7af9 2cbe 2ffe 8b3e 74be ac3d f33a 4dbe
00000200: d3ce 3f3c 2b4d af3d 4a64 24bd 58b4 dbbd
00000210: 883c 1dbe 7c9e ab3d a118 7f3e b194 12bf
00000220: 1b1f 163e d00f 07bf 2970 f83d e2de 7ebf
00000230: cbfb 053d b8bc 03be f1cc 13be 83bc a1bd
00000240: 19a3 ad3d 6484 fe3d 34d1 2cbf 13d0 1ac0
00000250: 0eab 1d3e 9542 8dbe e749 a13d 2eae 903e
00000260: 887c 483d 3736 aa3d c0d9 863e 3fa8 d53d
00000270: 9fc8 813d 6653 b8be 0646 0ebd b6bb 3b3e
00000280: e5f5 c23d 9fae cbbf 0630 21c0 1be5 b4bd
00000290: f842 a73d 3e05 56c0 4574 87be f0b2 fabc
000002a0: 8004 293b c822 eb3c ab2f bcbe e698 313e
000002b0: 6833 db3c 68eb 70c0 0859 26c0 9088 263e
000002c0: 1d7c 37bf 0665 0fbe 8b43 5cbe d020 c43e
000002d0: 4f93 1dbf b4aa 2cbe 6084 afbd 51a8 833e
000002e0: 2af8 7bbf 8300 043e 0c81 ae3e 1e8e 003f
000002f0: c03b 3e3b 50f2 0cbc 10c6 dabd e07d f7bb
00000300: 7a80 a93e 18e6 ce3c 50b4 bdbd bbb0 723d
00000310: dcc0 7f3d 3a0d 59bf f901 043e f622 783e
00000320: fa12 0d3d c608 db3c 3c83 23be 706a aa3d
00000330: 06c2 3c3d e7ec 4c3c 7cc1 f93c e60c 1cbd
00000340: f78a 683d a045 01bc c8a9 bdbd da4e b2bd
00000350: 60ff 2b3c 5f52 babd add4 7dbd 92f0 36be
00000360: 09f5 ecbc e0cc 75bd 4c9b 803d 9751 46bd
00000370: a8df babc 3a43 a2bd 5006 adbd 71bd d83d
00000380: 17e0 fbbd 0378 3abe 3665 27bd 622b 1f3d
00000390: af29 a73c dea4 efbd 98e1 35bd e861 66bd
000003a0: 83f8 c33d 1a0c 0ebd f727 043e 3d6f fab9
000003b0: 4bc5 f9bd 38d4 abbd a172 09be 77e0 cb3a
000003c0: 955d 01bc a66d 553e bb3e 87bd c825 0e3e
000003d0: ba43 71bd 6cfd 093e 40a2 88bb 02e7 c9bd
000003e0: 5788 613e da52 fdbe 4067 1fbb 76b1 c7bd
000003f0: 49c9 a1bc 1a2c 0dbe 8a10 0e3e 355d 87bf

layers.2.bias f4 [40]
-1.0179764 0.42661896 0.54748595 -0.9986892 0.26392946 -0.15193008 0.12792753 0.21083261
0.0028757697 -0.051138837 -0.30002713 0.18217644 -0.12369109 -1.3604968 0.70919675 -1.1859806
0.23433813 -0.026329303 -0.24180682 -0.36302525 0.13642472 -0.080994286 -0.10088999 -0.57344776
-0.013807717 -0.051549356 -0.074969485 0.72273356 -0.028121276 -0.10572136 0.05615225 -0.5656695
-0.12762055 -0.071568534 -0.5144289 -0.09271066 0.40182164 0.32754582 -0.061741993 0.33025303
00000000: 0d4d 82bf cd6d da3e 0a28 0c3f 18aa 7fbf
00000010: c321 873e 8f93 1bbe 6fff 023e 81e4 573e
00000020: 6977 3c3b f576 51bd 289d 99be 768c 3a3e
00000030: c151 fdbd c224 aebf eb8d 353f 36ce 97bf
00000040: 56f6 6f3e 8db0 d7bc 359c 77be 72de b9be
00000050: ecb2 0b3e 55e0 a5bd 699f cebd 79cd 12bf
00000060: c339 62bc 6b25 53bd 9a89 99bd 1105 393f
00000070: 975e e6bc 7184 d8bd e7ff 653d b7cf 10bf
00000080: f6ae 02be 8692 92bd 9db1 03bf 16df bdbd
00000090: 91bb cd3e 16b4 a73e 2ce5 7cbd ed16 a93e

layers.4.weight f4 [1, 40]
0.3799172 -0.40851918 -0.43300977 0.3391255 -0.40200883 -0.0076193423 -0.27729708 0.56472063
0.83840805 -0.12989184 -0.15598904 -0.64390856 0.02729887 0.54411244 -0.39248207 0.43340224
-0.11986617 0.042319555 -1.2995253 -0.66871995 -0.23402815 0.033566438 0.040885743 -0.38386533
-0.4718405 -0.020046428 -0.49976718 -0.59247154 -0.40760517 -0.4418977 -0.46495047 0.89952916
-0.089790255 -0.085686065 0.35268328 -0.025121378 0.9176234 -0.30949235 0.5178277 1.0067683
00000000: 8284 c23e 6d29 d1be 75b3 ddbe dca1 ad3e
00000010: 1ad4 cdbe adab f9bb e2f9 8dbe 8891 103f
00000020: e9a1 563f 5e02 05be 97bb 1fbe 31d7 24bf
00000030: e1a1 df3c f44a 0b3f 69f3 c8be e6e6 dd3e
00000040: 657c f5bd 4557 2d3d d856 a6bf 3b31 2bbf
00000050: 13a5 6fbe f67c 093d cf77 273d ff89 c4be
00000060: 1495 f1be 6838 a4bc 7ce1 ffbe 37ac 17bf
00000070: a0b1 d0be 6a40 e2be fd0d eebe 8b47 663f
00000080: f4e3 b7bd 2d7c afbd e792 b43e 59cb cdbc
00000090: 5ee9 6a3f c875 9ebe 5b90 043f c9dd 803f
