checkpoints/iter_90000.pt (torch_old, 8192 bytes, 5 tensors)

layers.0.weight f4 [40, 1]
000000 97 0f 05 be c8 b4 2b 3d bf 65 f2 3d af 6d ff 3e
       -0.12994228 0.041920453 0.11835813 0.4988837
000010 ad 98 0a bf 83 17 3e 3c e5 2e 19 bf bf ff dd 3e
       -0.54139215 0.011602285 -0.5983718 0.4335918
000020 29 d5 e5 3e 2b d8 52 3f d3 7c 2a bf 6b 79 ec be
       0.4488919 0.82361096 -0.66596717 -0.46186385
000030 7e 6d f3 3e bd c3 87 3d 6f 1e a9 bc 83 8f 14 be
       0.47544473 0.06629131 -0.020644395 -0.1450787
000040 91 f8 34 be 1f 45 cd 3b d0 b9 84 3e 74 6d cf bc
       -0.17672946 0.0062643434 0.25923014 -0.025320746
000050 d6 9b 51 bf 7a 97 01 bf 73 ef 78 bf 24 f2 23 bf
       -0.8187841 -0.5062176 -0.9724037 -0.6404135
000060 67 82 4e bf ee 1c 17 3f dc 13 d1 be 69 58 fd bd
       -0.8066773 0.5902852 -0.40835464 -0.123703785
000070 62 3d 55 3e df b7 10 3f 2e 5d aa be a5 ca a9 3e
       0.20824197 0.56530565 -0.33274215 0.33162418
000080 67 d0 1e bd c4 90 63 3f 84 db 0c 3f 8c 23 70 bf
       -0.038772967 0.8889277 0.55022454 -0.9380424
000090 c1 0a 63 3f e7 bf d3 bc 80 89 43 3d fc f2 fa bc
       0.88688284 -0.025848342 0.047738552 -0.030633442

layers.0.bias f4 [40]
000000 e8 45 8a bd c8 9b 75 3e 5a d3 cb 3d f4 34 9d be
       -0.06751615 0.23985207 0.099524215 -0.30704463
000010 f1 b9 0a bf c6 fa df 3d 47 67 af bf 05 c3 56 bf
       -0.54189974 0.10936503 -1.3703393 -0.83891326
000020 ab b7 fd be 55 1a 46 c0 91 c2 08 c0 ad 7b 92 be
       -0.4955419 -3.0953572 -2.1368754 -0.28609982
000030 35 c4 c9 bf 2f 0b b8 3d 61 7a a9 3d a1 89 88 3e
       -1.5763003 0.08986508 0.08275295 0.26667503
000040 c8 70 74 3d 42 fb 0c bd da 7c 0c be 94 0b cf 3d
       0.05967787 -0.034419306 -0.13719502 0.1010963
000050 1e 50 15 c0 1a 37 9f bf df 50 df bf 1e 02 d2 be
       -2.333015 -1.2438691 -1.7446555 -0.4101724
000060 80 2c 52 c0 4b 12 7a bf 88 7a 28 3e 53 3e be 3e
       -3.283966 -0.9768416 0.16452992 0.37156925
000070 54 1e 8a bd 41 7a 17 c0 68 2d d6 3d 8b e0 44 be
       -0.06744066 -2.3668368 0.10457879 -0.19226281
000080 ce c9 bf 3d 3b c9 19 c0 40 33 af bf 4f 33 9b bf
       0.09364663 -2.4029071 -1.3687515 -1.2125033
000090 ff 20 f5 bf d7 c2 0c 3f 2c e9 9f be d4 3f 05 3e
       -1.9150695 0.549848 -0.31232584 0.1301263

layers.2.weight f4 [40, 40]
000000 c3 62 47 bd e5 6c 2f be c8 9c cb 3d 27 4b a6 be
       -0.04867817 -0.17131384 0.09942013 -0.32479212
000010 b8 e4 27 be af d2 7f 3d 46 e2 0f bf fe e7 ee be
       -0.16395843 0.062456783 -0.5620464 -0.4666137
000020 24 07 76 be c4 e7 0b 3d 7a 48 e1 3e ac f2 ba 3d
       -0.24026161 0.034156576 0.44000608 0.09128317
000030 39 03 82 bc 12 11 2d bf 0a c3 c3 be 35 2c c8 3d
       -0.015870677 -0.6760417 -0.3823474 0.09774057
000040 a5 fa 4a bf e9 7f 39 3f 2d 55 f5 be db 80 67 3f
       -0.79288703 0.724608 -0.47916546 0.9043099
000050 1d 8a 47 3e 50 94 1b 3f 5d 3a e2 3c 32 24 01 3e
       0.1948628 0.6077318 0.02761572 0.12611464
000060 5a 80 5c 3e d7 20 ed be 2b 02 9d 3e 31 f2 a9 bd
       0.21533337 -0.46314117 0.30665717 -0.082981475
000070 0d 7d b7 be 0b 49 20 3d 27 14 ad 3d 6c ee 9d be
       -0.35837594 0.03913216 0.084511094 -0.30845964
000080 3e 4d 3c 3e d9 bc e4 bd f8 2c 2e be ed e3 3c 3e
       0.1838884 -0.11168832 -0.17009342 0.18446322
000090 96 d9 91 be 37 ca a2 bf ef 2a 8d bd ff 78 b6 3f
       -0.28486317 -1.2717961 -0.068929546 1.4255675
0000a0 22 09 2f 3e 5e 48 aa 3f ee 4e d9 c0 a6 7f 88 bd
       0.17093328 1.3303335 -6.790885 -0.06664972
0000b0 0b 04 33 be 08 5d 86 3f 89 35 5d bf bb 51 92 bd
       -0.17482011 1.0497141 -0.86409813 -0.07144495
0000c0 cc 92 0d be 76 91 94 3d c0 b1 9b bf 0a 5b 2a 3e
       -0.1382553 0.07254307 -1.216362 0.16636291
0000d0 9e cf da 3d ac 2e 0d c0 d0 c8 4a be 70 b7 48 be
       0.10684131 -2.2059736 -0.19803166 -0.19601226
0000e0 c3 ca 84 bf cb ec 30 3e 16 04 3f bf 9e ca 74 be
       -1.0374378 0.1727783 -0.7461561 -0.23905417
0000f0 70 c1 b7 be 71 6d ad 3d 7a c8 ed be d2 c7 cc bd
       -0.3588977 0.0846814 -0.46442014 -0.0999905
000100 da d5 23 c0 33 98 4a be 4f f8 7d 3f 8e fb d8 be
       -2.5599275 -0.19784622 0.99207014 -0.4237942
000110 d9 ab 00 c0 00 3b cf bd 2c 53 f2 3e 1b fe ba be
       -2.0104887 -0.10118675 0.4732908 -0.36521992
000120 28 74 d0 3e ba b8 b1 bd c4 cf ee bd be 35 a0 be
       0.4071362 -0.08677812 -0.11660722 -0.31291002
000130 e3 3f f9 bd 28 e6 86 bf b4 92 11 3d 36 aa 8f be
       -0.121703885 -1.0538988 0.035540298 -0.28059548
000140 98 12 a0 3d 24 ac 9d 3f 1d f8 17 3f 25 d6 0c be
       0.078160465 1.2318158 0.59362966 -0.13753565
000150 1f 37 bf be 76 f7 2d bd 55 12 ca be a7 72 42 bf
       -0.37346742 -0.042472325 -0.3946711 -0.75956196
000160 24 8e 70 bf 3c 90 a8 bf 53 35 07 bf 4f 88 92 3d
       -0.9396689 -1.3169017 -0.5281574 0.07154905
000170 e2 9c 38 c0 2b 96 cd 3d 47 0c 02 be 84 10 fb bd
       -2.8845754 0.10038408 -0.12699996 -0.122590095
000180 db fe 79 bd cb 7a 5c bf 3c bb 41 3f c0 fd e7 3e
       -0.061034065 -0.8612487 0.7567632 0.45310783
000190 cf 97 fd 3e a1 69 b6 3f 55 f6 54 be 63 0d eb bd
       0.49529883 1.4250985 -0.20797093 -0.11477163
0001a0 5e 5c ce bf 35 9d 86 bf 16 47 e9 3e 97 00 9d 3e
       -1.6121938 -1.0516726 0.45562047 0.30664513
0001b0 aa 62 fd 3f 08 04 d2 3d 06 04 8b 3e dc 87 18 3f
       1.9795735 0.10254675 0.27151507 0.59582305
0001c0 f3 80 c1 3e 3b a2 5a bf 7a 3b c9 3e 0a ed f4 be
       0.37793693 -0.85403794 0.3930319 -0.47837096
0001d0 71 34 88 bf 21 e5 08 c0 63 33 f8 bd 78 11 1c 3f
       -1.0641004 -2.138985 -0.12119176 0.60964155
0001e0 b9 45 50 be 0d c6 11 3f 59 64 ce be 5c c4 fb 3d
       -0.20339097 0.56942827 -0.40310934 0.12293312
0001f0 96 d3 9c be 15 5e be bd 5e c5 21 bd 65 eb 95 be
       -0.30630177 -0.092952885 -0.039494865 -0.29281154
000200 35 eb 77 3d 95 ba 25 3e f2 96 24 be 5a 16 7e be
       0.060527045 0.16184457 -0.16073206 -0.24813214
000210 57 be f3 3d b9 c3 70 3e ab c9 9c 3f 12 89 52 bf
       0.11901539 0.23512162 1.2249044 -0.822404
000220 1b 31 29 3f 06 31 bc bd 86 95 66 3e 2d a0 36 bf
       0.66090554 -0.09189038 0.22517976 -0.7133816
000230 df 50 b9 bd 1a de 84 be a7 52 8c be 04 be 61 be
       -0.09048628 -0.259507 -0.2740681 -0.22045141
000240 b3 11 1f bd 9f 6c a6 3c 4a 17 53 bf 2d 4b 80 bf
       -0.03883524 0.020315466 -0.8245741 -1.0022942
000250 92 37 7e bd 69 82 d2 3e d5 ee 7e bd 64 60 cb 3e
       -0.062064715 0.4111512 -0.062239487 0.39721978
000260 7a f2 1d 40 21 8f a5 3d 37 25 ed 3d e7 01 00 bd
       2.4679246 0.0808394 0.11579364 -0.031251814
000270 d5 12 2c 3b a5 06 1b be 06 46 0e bd 25 74 8e 3e
       0.0026256342 -0.15139253 -0.03473475 0.27822986
000280 e9 0b c0 3e 39 64 3c c0 c8 06 83 c0 1b e5 b4 bd
       0.37509087 -2.943617 -4.094578 -0.08832761
000290 64 5c 4d 3e b4 1a 2f c0 19 05 92 be f0 b2 fa bc
       0.20054775 -2.7360048 -0.28519514 -0.030602902
0002a0 80 04 29 3b c8 22 eb 3c e1 be e0 be 3c d6 ac 3e
       0.0025790036 0.028703108 -0.4389563 0.33757198
0002b0 68 33 db 3c 52 7f 96 c0 ae c8 b5 bf e1 b1 55 bd
       0.02675791 -4.703042 -1.4201868 -0.05217159
0002c0 0e cb ad bf cd 66 04 bf 8b 43 5c be 70 6c b8 3c
       -1.3577592 -0.5171936 -0.2151014 0.022512645
0002d0 6d 96 27 bf 65 63 b0 be c9 16 33 be 51 c6 c2 3e
       -0.65463907 -0.34450832 -0.1748916 0.38041928
0002e0 ab 24 bd bf 83 00 04 3e 74 6e 3a 3f 59 9d bc 3e
       -1.4776815 0.1289082 0.7282479 0.36838797
0002f0 c0 3b 3e 3b 50 f2 0c bc 8c df ec 3e e0 7d f7 bb
       0.0029027313 -0.008602694 0.46264303 -0.0075528473
000300 81 b3 30 3f 18 e6 ce 3c 50 b4 bd bd 29 d4 bf 3d
       0.690239 0.025256202 -0.092629075 0.09366638
000310 dc c0 7f 3d e8 dd df be f9 01 04 3e fd b6 6e bf
       0.062439784 -0.4372399 0.12891378 -0.9324797
000320 fa 12 0d 3d c6 08 db 3c 3c 83 23 be 70 6a aa 3d
       0.034441926 0.026737582 -0.1596803 0.083210826
000330 06 c2 3c 3d e7 ec 4c 3c 7c c1 f9 3c e6 0c 1c bd
       0.046083473 0.012507654 0.030487768 -0.03809824
000340 f7 8a 68 3d a0 45 01 bc c8 a9 bd bd da 4e b2 bd
       0.056773152 -0.007890135 -0.09260899 -0.08706446
000350 60 ff 2b 3c 5f 52 ba bd ad d4 7d bd 92 f0 36 be
       0.010497898 -0.09097742 -0.0619704 -0.17865208
000360 09 f5 ec bc e0 cc 75 bd 4c 9b 80 3d 97 51 46 bd
       -0.028925436 -0.060009837 0.062796205 -0.048417654
000370 a8 df ba bc 3a 43 a2 bd 50 06 ad bd 71 bd d8 3d
       -0.022811726 -0.07922979 -0.0844847 0.10583008
000380 17 e0 fb bd 03 78 3a be 36 65 27 bd 62 2b 1f 3d
       -0.12298601 -0.18209843 -0.040868007 0.038859732
000390 af 29 a7 3c de a4 ef bd 98 e1 35 bd e8 61 66 bd
       0.020405618 -0.11701368 -0.044404596 -0.056245714
0003a0 83 f8 c3 3d 1a 0c 0e bd f7 27 04 3e 3d 6f fa b9
       0.09568884 -0.03467951 0.1290587 -0.00047766595
0003b0 4b c5 f9 bd 38 d4 ab bd a1 72 09 be 77 e0 cb 3a
       -0.12195834 -0.08390087 -0.13422634 0.0015554567
0003c0 95 5d 01 bc c1 51 81 bf a8 5b 26 be fd e0 81 3e
       -0.007895847 -1.0103074 -0.16245902 0.25366965
0003d0 ba 43 71 bd a7 28 9c 3d 40 a2 88 bb 36 99 c5 bd
       -0.05890248 0.07624941 -0.0041697323 -0.09648363
0003e0 62 4a e7 3e 94 75 02 bf 40 67 1f bb 76 b1 c7 bd
       0.45173937 -0.5096066 -0.0024323016 -0.09750645
0003f0 02 6b f9 3d da 99 3d 3e ff 8d ee 3e 34 c3 8b bf
       0.12178613 0.18515721 0.4659271 -1.0918946

layers.2.bias f4 [40]
000000 78 42 ad bf 25 d3 4e 3f 77 e2 34 3f 47 b4 af bf
       -1.353591 0.8079093 0.7065806 -1.3726891
000010 c4 40 5c 3e 8f 93 1b be 70 7b 25 bd c1 94 04 3f
       0.21509081 -0.15193008 -0.040400922 0.5178948
000020 fa e7 cd bd f5 76 51 bd a4 9d 56 bf 3f ea bb 3e
       -0.10054012 -0.051138837 -0.8383429 0.36702153
000030 c1 51 fd bd 55 a3 05 c0 be c3 04 3f 0d 4e dd bf
       -0.12369109 -2.088094 0.5186118 -1.7289444
000040 84 c4 8b 3e 8d b0 d7 bc 07 80 23 be f9 47 2b bf
       0.27298367 -0.026329303 -0.15966807 -0.66906697
000050 98 42 8c 3e 88 a9 f2 bd 74 cc 07 be d1 a7 a5 bf
       0.27394557 -0.11848742 -0.13261586 -1.2941839
000060 9b ea 73 bd 6b 25 53 bd 90 f3 04 bf 25 c3 f7 3e
       -0.05954991 -0.051549356 -0.51934147 0.4839107
000070 8f 85 f6 bc b2 f0 1d bd 23 eb 0e be 91 4e 9f bf
       -0.030092983 -0.038559623 -0.13956885 -1.2445852
000080 f6 ae 02 be f5 9f d3 bd c3 8f 2f bf 16 df bd bd
       -0.12762055 -0.10333244 -0.6857874 -0.09271066
000090 c2 2d 49 3f 56 d0 8c 3e 2a fa f9 3b 85 08 1d 3f
       0.78585446 0.27502698 0.007628699 0.61341125

layers.4.weight f4 [1, 40]
000000 40 f9 5c 3e d1 e7 4a bf 45 12 0c bf a1 03 ee 3e
       0.21579456 -0.79259974 -0.5471538 0.46487144
000010 3b eb 96 be ad ab f9 bb 01 50 a6 be ea 1d 49 3f
       -0.29476342 -0.0076193423 -0.32482913 0.7856127
000020 e6 95 42 3f 5e 02 05 be ec d0 81 be f0 f4 d7 be
       0.76009977 -0.12989184 -0.25354707 -0.4217906
000030 e1 a1 df 3c a0 6a 1b 3f 64 03 e1 bd 2c f3 68 3f
       0.02729887 0.6070957 -0.10986975 0.9099605
000040 9b ec dc be 45 57 2d 3d 5b 79 3b c0 38 61 ab be
       -0.43149266 0.042319555 -2.929282 -0.3347261
000050 c6 7d 6f be 1d 8c 61 3c a1 47 21 3c 47 d3 3f bf
       -0.23387823 0.013766316 0.009843738 -0.7493176
000060 73 72 00 c0 68 38 a4 bc 35 b5 27 bf 23 3b e3 be
       -2.0069854 -0.020046428 -0.65510875 -0.44381055
000070 d0 f1 21 bf 34 5a 94 be b0 23 60 3d 8b 11 be 3e
       -0.632596 -0.2897507 0.054721534 0.3712276
000080 f4 e3 b7 bd 20 e2 5c bd 30 79 60 bc 59 cb cd bc
       -0.089790255 -0.053926587 -0.013700768 -0.025121378
000090 66 97 51 3f 6a a6 4f 3e 14 1c 00 3f ca 09 ab 3f
       0.8187164 0.20278326 0.50042844 1.3362362
