checkpoints/iter_10000.pt (torch_old, 8192 bytes, 5 tensors)

layers.0.weight f4 [40, 1]
-0.26586384 0.12857299 0.07888001 0.45400366 -0.38472322 0.116578884 -0.45183274 0.29104716
0.42150795 0.6485473 -0.45015284 -0.5457797 0.32186186 0.1760139 0.1527771 -0.16747427
-0.31742182 0.13826872 0.16671047 -0.15304759 -0.55860466 -0.30549002 -0.7471664 -0.49963328
-0.64066094 0.55885124 -0.11639995 -0.027743913 0.22342902 0.33253112 -0.27992034 0.4741799
-0.21621564 0.71360606 0.37278867 -0.7363503 0.7203217 0.04743374 0.047738552 -0.06532655
00000000: 4e1f 88be a3a8 033e d88b a13d 2b73 e83e
00000010: 71fa c4be e9c0 ee3d 9f56 e7be 2204 953e
00000020: e4cf d73e 3207 263f 6f7a e6be 38b8 0bbf
00000030: 14cb a43e fd3c 343e 9a71 1c3e 607e 2bbe
00000040: 1d85 a2be 5196 0d3e 26b6 2a3e 82b8 1cbe
00000050: b700 0fbf 3069 9cbe 4c46 3fbf efcf ffbe
00000060: 5b02 24bf e010 0f3f 1963 eebd 3447 e3bc
00000070: 94ca 643e 8541 aa3e b851 8fbe b5c7 f23e
00000080: a267 5dbe e3ae 363f 28de be3e 7481 3cbf
00000090: 0167 383f e249 423d 8089 433d edc9 85bd

layers.0.bias f4 [40]
-0.19469339 0.5110349 0.30516586 -0.4899623 -0.64388925 0.48409864 -1.1586034 -0.65849984
-0.5798463 -2.0074027 -1.0518517 -0.44606707 -1.0913993 0.37193444 0.3647427 0.61421466
-0.024737887 -0.2389686 -0.03497855 0.5539646 -1.4226671 -0.6445888 -1.593974 -0.67305183
-1.9763064 -1.0020174 0.4285782 0.67140514 -0.071477726 -1.201326 -0.119199984 -0.23710126
0.83744055 -1.8647438 -1.0624691 -1.3362347 -1.6366177 0.6193647 -0.31232584 0.23151286
00000000: b45d 47be 2fd3 023f b33e 9c3e 57dc fabe
00000010: edd5 24bf c7db f73e 1e4d 94bf 7293 28bf
00000020: cf70 14bf 4979 00c0 14a3 86bf e762 e4be
00000030: f9b2 8bbf 316e be3e 8ebf ba3e 2c3d 1d3f
00000040: 1ca7 cabc 2fb4 74be ab45 0fbd a0d0 0d3f
00000050: f519 b6bf c603 25bf 5707 ccbf 204d 2cbf
00000060: 9cf7 fcbf 1b42 80bf 9a6e db3e 35e1 2b3f
00000070: ea62 92bd 0dc5 99bf 1f1f f4bd acca 72be
00000080: 8162 563f edaf eebf fdfe 87bf bd09 abbf
00000090: b07c d1bf af8e 1e3f 2ce9 9fbe b511 6d3e

layers.2.weight f4 [40, 40]
0.014853667 -0.13568379 -0.022449289 0.039577782 -0.010276416 -0.6655224 -0.25289765 -0.13537955
0.12287383 0.10407747 0.2522023 0.12224719 0.064931914 -0.25119168 -0.17257299 0.047513895
-0.07040314 0.065161616 -0.117866196 0.025173767 0.15827501 0.5127329 0.16914774 0.18532039
0.346696 -0.13196504 -0.26366624 -0.21158047 0.007539823 0.0781848 0.06415558 0.05317675
-0.23641172 -0.0014405698 -0.010325968 0.25406513 -0.06426277 -1.8468553 -0.068929546 0.55616295
0.1716062 -0.7851923 -1.0440187 0.14108957 0.059615336 -0.99918455 -0.8660592 0.02952438
-0.006686321 0.07254307 -0.23846124 0.1574558 0.10684131 -0.53149164 -0.81848603 0.28187403
-0.28826675 -0.08390423 -0.45874363 0.45813566 -0.24352813 0.068423554 -0.2796793 0.05397296
-0.6438283 -0.08813858 0.20985208 0.12328345 -0.40891418 -0.10118675 -0.0047127246 -0.12811173
0.5127914 -0.08677812 -0.08484658 -0.050607514 -0.0774697 -1.1927719 0.035540298 -0.008811026
-0.023498248 -0.02559045 0.019284036 -0.27859756 -0.11439653 -0.020789633 -0.79018265 -0.20433721
-0.43253192 -0.24704275 -0.1878677 0.019638045 -0.098048836 0.1708736 0.009651971 0.08566288
-0.23841016 -1.2783446 -0.044955257 0.37839493 -0.19078185 0.406423 -0.28358305 -0.004755198
-0.6601703 -0.33035958 0.029902399 -0.032731023 0.19559556 -0.044530246 -0.022000639 0.15402232
0.7386223 -0.26813006 -0.10933093 -0.26326537 -0.57205564 -1.7425215 -0.12119176 0.40569597
-0.030977368 0.065260805 -0.09057255 0.09599696 -0.13715555 0.041844513 0.11611222 0.020509036
0.16183005 0.2744612 -0.008370802 -0.07551236 0.033752408 0.12874758 -0.0281894 0.38030854
0.12619315 -0.39931086 0.08395394 -1.2931799 0.06447509 -0.096888006 -0.11257134 -0.047207713
0.11654751 0.32103193 -1.3405149 -2.4673955 0.21618347 0.1209108 0.11051922 0.30663437
0.2607231 0.29720113 0.4152925 0.13608997 0.19076923 -0.5009011 -0.03473475 0.12824082
-0.026086748 -1.4540874 -0.80565834 -0.08832761 -0.09887237 -2.5067809 -0.28744823 -0.030602902
0.0025790036 0.028703108 -0.044258922 0.05672836 0.02675791 -1.415718 -1.7154309 0.114140846
-0.49038693 -0.07591118 -0.2151014 0.45329386 -0.29335108 -0.06891276 -0.16630268 0.083225965
-0.38037863 0.1289082 0.5450522 0.7174653 0.0029027313 -0.008602694 -0.14268918 -0.0075528473
0.36822578 0.025256202 -0.092629075 -0.044220958 0.062439784 -1.0551771 0.12891378 0.30649766
0.06016116 0.017949441 -0.17253515 0.083210826 0.07174437 -0.028412871 0.051639974 -0.03809824
0.056773152 -0.007890135 -0.072245285 -0.06334752 0.010497898 -0.09097742 -0.02705293 -0.15445988
-0.016782194 -0.030280963 0.062796205 -0.024906041 -0.003185764 -0.05539134 -0.058849648 0.13153218
-0.08649314 -0.18209843 -0.026325248 0.056732535 0.020405618 -0.11701368 -0.021817103 -0.056245714
0.11948326 -0.03467951 0.1290587 0.023738965 -0.12195834 -0.14242733 -0.13422634 0.044703096
-0.007895847 0.22135898 0.11267063 0.037950564 -0.05890248 0.20372587 -0.0041697323 -0.11234944
0.101812646 -0.2933611 -0.0024323016 -0.09750645 -0.5136219 0.085587636 0.16884516 -0.65379196
00000000: cb5c 733c b1f0 0abe 92e7 b7bc 501c 223d
00000010: 6a5e 28bc ad5f 2abf cd7b 81be f0a0 0abe
00000020: 46a5 fb3d 9226 d53d a920 813e bc5c fa3d
00000030: 06fb 843d 329c 80be f9b6 30be ee9d 423d
00000040: 852f 90bd 7473 853d d563 f1bd 3739 ce3c
00000050: d812 223e 7742 033f 1135 2d3e a1c4 3d3e
00000060: 2382 b13e d821 07be 43ff 86be 8da8 58be
00000070: 9f10 f73b 5a1f a03d 0064 833d ddcf 593d
00000080: ea15 72be 80d1 bcba 402e 29bc d314 823e
00000090: 339c 83bd c165 ecbf ef2a 8dbd b260 0e3f
000000a0: 89b9 2f3e 5d02 49bf 68a2 85bf c979 103e
000000b0: 362f 743d 8fca 7fbf 0eb6 5dbf 1ddd f13c
000000c0: ed18 dbbb 7691 943d 2f2f 74be 183c 213e
000000d0: 9ecf da3d d60f 08bf 4d88 51bf cb51 903e
000000e0: b397 93be fbd5 abbd 72e0 eabe c290 ea3e
000000f0: 705f 79be a621 8c3d 2032 8fbe c012 5d3d
00000100: eed1 24bf 0082 b4bd 77e3 563e 097c fc3d
00000110: 335d d1be 003b cfbd 336d 9abb b92f 03be
00000120: 4c46 033f bab8 b1bd 0bc4 adbd d349 4fbd
00000130: 6fa8 9ebd c0ac 98bf b492 113d 1f5c 10bc
00000140: 667f c0bc 10a3 d1bc 8ef9 9d3c 57a4 8ebe
00000150: ba48 eabd 054f aabc 6949 4abf c63d 51be
00000160: d374 ddbe c6f8 7cbe 6460 40be f7df a03c
00000170: d4cd c8bd 7df9 2e3e 4d23 1e3c 0570 af3d
00000180: cb21 74be cca0 a3bf 0123 38bd fbbc c13e
00000190: 515c 43be ad16 d03e cc31 91be 7ed1 9bbb
000001a0: ec00 29bf e424 a9be e0f5 f43c f710 06bd
000001b0: 344a 483e 5965 36bd af3a b4bc 07b8 1d3e
000001c0: 5a16 3d3f 5848 89be e5e8 dfbd b8ca 86be
000001d0: 3d72 12bf f20a dfbf 6333 f8bd 62b7 cf3e
000001e0: 40c4 fdbc 75a7 853d 1a7e b9bd 0e9a c43d
000001f0: 8172 0cbe 2765 2b3d 3ecc ed3d 9102 a83c
00000200: c7b6 253e 2e86 8c3e b025 09bc 39a6 9abd
00000210: f73f 0a3d 68d6 033e 75ed e6bc cdb7 c23e
00000220: c738 013e 7972 ccbe 0bf0 ab3d eb86 a5bf
00000230: 840b 843d 386d c6bd cd8b e6bd e05c 41bd
00000240: 76b0 ee3d 4c5e a43e fe95 abbf cfe9 1dc0
00000250: 335f 5d3e 15a0 f73d e757 e23d 2eff 9c3e
00000260: 807d 853e bf2a 983e 38a1 d43e 2b5b 0b3e
00000270: 0259 433e 0e3b 00bf 0646 0ebd 9051 033e
00000280: e0b3 d5bc 891f babf a03f 4ebf 1be5 b4bd
00000290: 997d cabd 196f 20c0 6a2c 93be f0b2 fabc
000002a0: 8004 293b c822 eb3c d848 35bd ff5b 683d
000002b0: 6833 db3c 3f36 b5bf 3d93 dbbf adc2 e93d
000002c0: ff13 fbbe 5277 9bbd 8b43 5cbe 2216 e83e
000002d0: 1d32 96be 2222 8dbd 404b 2abe 6072 aa3d
000002e0: fdc0 c2be 8300 043e 8a88 0b3f ceab 373f
000002f0: c03b 3e3b 50f2 0cbc 1d1d 12be e07d f7bb
00000300: 1788 bc3e 18e6 ce3c 50b4 bdbd 0921 35bd
00000310: dcc0 7f3d 0b10 87bf f901 043e 43ed 9c3e
00000320: 8c6b 763d b50a 933c 0ead 30be 706a aa3d
00000330: b6ee 923d 1cc2 e8bc 7084 533d e60c 1cbd
00000340: f78a 683d a045 01bc 56f5 93bd 58bc 81bd
00000350: 60ff 2b3c 5f52 babd 1b9e ddbc bb2a 1ebe
00000360: d07a 89bc c80f f8bc 4c9b 803d c107 ccbc
00000370: 40c8 50bb 08e2 62bd 540c 71bd 5fb0 063e
00000380: 5123 b1bd 0378 3abe 0ca8 d7bc 6060 683d
00000390: af29 a73c dea4 efbd c8b9 b2bc e861 66bd
000003a0: a4b3 f43d 1a0c 0ebd f727 043e 3878 c23c
000003b0: 4bc5 f9bd 78d8 11be a172 09be 981a 373d
000003c0: 955d 01bc eeab 623e dcbf e63d 0d72 1b3d
000003d0: ba43 71bd 849d 503e 40a2 88bb 7717 e6bd
000003e0: 2683 d03d 6d33 96be 4067 1fbb 76b1 c7bd
000003f0: ba7c 03bf 9248 af3d bfe5 2c3e e95e 27bf

layers.2.bias f4 [40]
-0.82406497 0.36210418 0.5854044 -0.7379814 0.302003 -0.13046707 0.3137297 -0.0636009
-0.09099071 -0.051138837 -0.06995997 0.3435283 -0.109523304 -1.0821421 0.61660296 -0.8408569
0.39468682 0.03717662 -0.1045525 -0.45979077 0.3674519 -0.049234472 -0.06913747 -0.35351545
0.33493328 -0.022441754 0.23929998 0.6156591 0.31200936 -0.014304732 0.237578 -0.35439566
-0.10668936 -0.039931595 -0.27486694 -0.06104995 0.06205152 0.3529486 -0.1399523 0.029061893
00000000: ecf5 52bf b865 b93e 10dd 153f 59ec 3cbf
00000010: 23a0 9a3e 2999 05be 2ea1 a03e 3041 82bd
00000020: 5659 babd f576 51bd 2c47 8fbd f1e2 af3e
00000030: c14d e0bd a283 8abf b1d9 1d3f 6642 57bf
00000040: 6414 ca3e 8346 183d 9f1f d6bd b269 ebbe
00000050: a822 bc3e 16aa 49bd f297 8dbd faff b4be
00000060: 607c ab3e c5d7 b7bc 0e0b 753e d69b 1d3f
00000070: b1bf 9f3e 655e 6abc a647 733e 5973 b5be
00000080: f47f dabd 508f 23bd 5cbb 8cbe 830f 7abd
00000090: bc29 7e3d aeb5 b43e a84f 0fbe 3513 ee3c

layers.4.weight f4 [1, 40]
0.28992933 -0.45150778 -0.5147176 0.58759755 -0.39763784 0.01190852 -0.22335362 0.8062161
0.32633528 -0.12989184 -0.36497277 -0.19972254 0.03679522 0.47577083 -0.47027054 0.2996987
-0.3831066 0.085203424 -0.11724881 -0.14540035 -0.32950306 0.06510468 0.072508566 -0.39230266
-0.5279482 0.0069201454 -0.3850317 -0.76170033 -0.39857286 -0.3807717 -0.15756465 0.38393846
-0.117421135 -0.11715088 0.37148428 0.0066148797 0.8104061 -0.45678657 0.8438464 0.82105887
00000000: 9e71 943e 072c e7be 88c4 03bf cb6c 163f
00000010: 3097 cbbe f41b 433c d0b6 64be 2e64 4e3f
00000020: 6b15 a73e 5e02 05be b6dd babe 1184 4cbe
00000030: 96b6 163d 3c98 f33e 4dc7 f0be 1c72 993e
00000040: 8c26 c4be 227f ae3d 2520 f0bd d4e3 14be
00000050: a0b4 a8be 9a55 853d 5f7f 943d e5db c8be
00000060: 9d27 07bf 63c2 e23b e022 c5be cbfe 42bf
00000070: be11 ccbe 82f4 c2be a158 21be 9593 c43e
00000080: 7e7a f0bd cdec efbd 3033 be3e a2c1 d83b
00000090: c676 4f3f eedf e9be 5106 583f ea30 523f
