checkpoints/iter_50000.pt (torch_old, 8192 bytes, 5 tensors)

layers.0.weight f4 [40, 1]
00000000: 8366 babe f5c5 cf3c ef03 c43d c564 023f
00000010: 7c16 f2be beb1 493c c7ec 08bf 10f7 c63e
00000020: 1214 ff3e 12ae 433f bd16 0dbf 6341 1fbf
00000030: 55f7 e03e d5dd b33d a6b5 90bc 15d3 68bd
00000040: 94e3 12be d9ce 1d3d 4eff 823e 53c0 7cbd
00000050: e3a0 2bbf af2c b2be 1edd 5dbf 2036 1dbf
00000060: dd48 37bf fca4 1b3f 86a3 2cbe c8fb 07be
00000070: 0a68 993e ff81 f53e c478 98be 38ea ad3e
00000080: 5772 5abd 5ef9 4f3f 65b1 fa3e 3422 56bf
00000090: cc26 543f c0b9 803d 8089 433d 3514 2abd
-0.36406335 0.025362948 0.09571063 0.5093501 -0.4728278 0.012310443 -0.53486294 0.3886037
0.4982 0.76437485 -0.5511282 -0.6220915 0.439387 0.087825455 -0.017664742 -0.05684193
-0.14344627 0.038527343 0.25585407 -0.061706852 -0.6704237 -0.34799716 -0.86665523 -0.61410713
-0.71595556 0.6079862 -0.16859254 -0.1327964 0.29962188 0.47950742 -0.29779637 0.33967757
-0.0533317 0.8123988 0.48963466 -0.8364594 0.828717 0.06285429 0.047738552 -0.041523177

layers.0.bias f4 [40]
00000000: 44b0 31be 08e6 913e 7487 f43d 6b82 f0be
00000010: c39d 2abf b8a2 af3d 2836 a8bf 2853 49bf
00000020: bcee 15bf 7962 2fc0 13de e7bf 9e29 cdbe
00000030: 811c b7bf cb87 303e 4e1c dc3d b08f 333e
00000040: 6d1b 933d 3271 28bd 6585 0ebe 9dcb 6c3e
00000050: 9d69 00c0 4de1 84bf 0b65 e2bf 2c0c 1dbf
00000060: af76 39c0 e60a 81bf 96aa 4a3e f8c7 193f
00000070: 1857 8d3d 575b fdbf f156 913d 60fd 95be
00000080: 6bca 2f3e 46ba 11c0 7753 abbf 3c1e aebf
00000090: 97c6 f4bf 0c07 ff3e 2ce9 9fbe 4c51 d83d
-0.17352396 0.28495812 0.11939898 -0.469745 -0.66646975 0.08575958 -1.3141527 -0.7864251
-0.58567405 -2.7403853 -1.8114647 -0.40070814 -1.4305574 0.17239301 0.10747586 0.17535281
0.071829654 -0.041123576 -0.13918073 0.23124547 -2.0064461 -1.0381256 -1.7687086 -0.613467
-2.8978689 -1.0081451 0.19791636 0.60070753 0.069013774 -1.97935 0.07096661 -0.29294872
0.1716706 -2.2769942 -1.3384846 -1.3602977 -1.9123105 0.49810064 -0.31232584 0.10562381

layers.2.weight f4 [40, 40]
00000000: 3250 14bd 9b9a 05bf c347 883e f734 0abe
00000010: 9b20 05be a800 1abf e01d bebe d9f3 9ebe
00000020: 73e0 53bd c4e7 0b3d 60ba a53e d149 eb3d
00000030: 3903 82bc b5e5 05bf e94b 33be 62e0 263f
00000040: bdc7 2bbf e5ab fa3e 3c04 95be 5634 bb3d
00000050: a097 a83e 9559 303f c97d 1c3e c4a5 293e
00000060: 884a e83e c93e 9dbe 98b6 803c c965 ddbe
00000070: 4918 2abe 6859 f43b ed83 58bd 6821 f5bd
00000080: 6d07 8e3e fdf7 e4bd f9dc f7bd 6b98 793e
00000090: fd3f 34be 9e07 bcbf ef2a 8dbd cef0 6c3f
000000a0: bd8d 8d3e e152 e63e 5438 8ac0 c979 103e
000000b0: c851 723d 661e 1cbf a56e e3be 1ddd f13c
000000c0: ed18 dbbb 7691 943d 9cc2 d1be c7b7 9f3e
000000d0: 9ecf da3d c74e cfbf de92 a2bf a098 943e
000000e0: ae14 bfbf ca4b 993e 72e0 eabe 70e7 a13e
000000f0: 3f33 b1be 7958 50be 5c1f 37be 125d bd3d
00000100: fbe2 03c0 0082 b4bd 4abc c63e afd3 28be
00000110: 063e 20bf 003b cfbd ce13 923d b92f 03be
00000120: ba60 f33e bab8 b1bd 0bc4 adbd 33a4 90bd
00000130: 6fa8 9ebd f2fe 09bf b492 113d eab8 b0be
00000140: a40b 7b3e 24ce 333f 2d82 e03e 4705 d8be
00000150: 4325 6abd 643f e2bd 0c51 38bf 2f97 f4be
00000160: 32f3 33bf bb99 a2bf 70d9 3fbf 61d9 9b3e
00000170: 241f 15c0 6453 0d3f 131c 11bf 900d c73e
00000180: b8e2 09bf 1827 85bf 69a3 2b3d 5a5a dd3e
00000190: de23 36be 552e 0b3f e337 38be eb64 013e
000001a0: 100a 11c0 5ea3 14bf b067 b83e a4c2 debe
000001b0: 1690 b23f 5ba8 fb3d c6f5 553e 2288 083e
000001c0: cf12 2f3f aed7 96bf bc17 d9bc c822 57be
000001d0: f398 87bf a425 fabf 6333 f8bd adc3 153f
000001e0: 105d 15be c0b0 503f 678b 17bd 221d 343d
000001f0: 43ee 80be f868 7d3e fdd6 ae38 dce2 88be
00000200: 67b4 7dbc c27c 113e 9bba 02be 4038 43be
00000210: 465b 81bd 9d5c 173e b9d7 123f d1e5 7ebe
00000220: a663 003f bec2 48bd 3958 fd3d 8e62 fdbf
00000230: 1351 63bd 2741 61be 20d0 69be 09f9 26be
00000240: ad9f bebb 7cf0 8e3d ecbb 43bf d63d a7bf
00000250: dc9f 053e f3a7 4c3e 6f82 54bb 5396 903e
00000260: baaf 1c3f 66ea 353d f237 333e 8efc a83c
00000270: 1aca 1b3c df31 9abe 0646 0ebd af3a 503f
00000280: c360 0b3e 016e efbf fd49 70c0 1be5 b4bd
00000290: 0973 783e a97b 53c0 a343 89be f0b2 fabc
000002a0: 8004 293b c822 eb3c 01bd 34bf 2770 7e3e
000002b0: 6833 db3c d20b 67c0 645e 2ec0 8064 5e3d
000002c0: 8728 25bf 4e39 bbbe 8b43 5cbe 5e75 c03e
000002d0: b55c 51bf 7236 b4be f0b5 b3bd f900 c33e
000002e0: d4c0 05c0 8300 043e 2405 c23e 8fcf 053f
000002f0: c03b 3e3b 50f2 0cbc c939 253c e07d f7bb
00000300: 031d 1e3e 18e6 ce3c 50b4 bdbd d6bf 2f3e
00000310: dcc0 7f3d 5747 c9be f901 043e 1b07 2fbe
00000320: fa12 0d3d c608 db3c 3c83 23be 706a aa3d
00000330: 06c2 3c3d e7ec 4c3c 7cc1 f93c e60c 1cbd
00000340: f78a 683d a045 01bc c8a9 bdbd da4e b2bd
00000350: 60ff 2b3c 5f52 babd add4 7dbd 92f0 36be
00000360: 09f5 ecbc e0cc 75bd 4c9b 803d 9751 46bd
00000370: a8df babc 3a43 a2bd 5006 adbd 71bd d83d
00000380: 17e0 fbbd 0378 3abe 3665 27bd 622b 1f3d
00000390: af29 a73c dea4 efbd 98e1 35bd e861 66bd
000003a0: 83f8 c33d 1a0c 0ebd f727 043e 3d6f fab9
000003b0: 4bc5 f9bd 38d4 abbd a172 09be 77e0 cb3a
000003c0: 955d 01bc 942f 503e e05f 02bd c352 fd3d
000003d0: ba43 71bd 4c09 c73e 40a2 88bb b569 4cbe
000003e0: e57a 4d3e 9d6c 06bf 4067 1fbb 76b1 c7bd
000003f0: d256 963d f124 cebd ec62 ae3e e1c4 00c0
-0.036209293 -0.52189034 0.2661725 -0.13496767 -0.13000719 -0.6015725 -0.37132168 -0.31045416
-0.051727723 0.034156576 0.32368755 0.11488689 -0.015870677 -0.5230363 -0.17509426 0.6518613
-0.6710165 0.4895927 -0.29104793 0.09140842 0.3292818 0.6888669 0.15282358 0.16567141
0.45369363 -0.30711964 0.015712067 -0.43241718 -0.16610827 0.007456947 -0.05286019 -0.11969262
0.2774004 -0.111801125 -0.12102694 0.24374549 -0.17602535 -1.4689825 -0.068929546 0.9255494
0.276472 0.44985107 -4.319376 0.14108957 0.059160024 -0.60983884 -0.44420353 0.02952438
-0.006686321 0.07254307 -0.40968788 0.31194898 0.10684131 -1.6195916 -1.270107 0.29022694
-1.4928186 0.29940635 -0.45874363 0.31621885 -0.3460941 -0.2034625 -0.17883056 0.092462674
-2.0607288 -0.08813858 0.38815528 -0.16487001 -0.6259464 -0.10118675 0.07132684 -0.12811173
0.47534734 -0.08677812 -0.08484658 -0.070625685 -0.0774697 -0.5390464 0.035540298 -0.34516078
0.2451616 0.7023642 0.43849316 -0.42191526 -0.05716444 -0.11047247 -0.7199867 -0.47771594
-0.7029296 -1.2703165 -0.7494116 0.30439284 -2.3300257 0.5520537 -0.5668346 0.38877535
-0.5386157 -1.0402555 0.041903887 0.43232995 -0.1778712 0.5436757 -0.17990069 0.12636153
-2.2662392 -0.5806178 0.36016607 -0.43507874 1.3950222 0.12287971 0.20894536 0.1333318
0.68388075 -1.178457 -0.026500575 -0.21009362 -1.0593551 -1.9542737 -0.12119176 0.585017
-0.14586282 0.815197 -0.03699818 0.043973096 -0.2518178 0.24747074 8.337011e-05 -0.2673558
-0.015484906 0.14207748 -0.12766497 -0.19064426 -0.06316237 0.14781423 0.57360417 -0.24892356
0.5015205 -0.049013846 0.12370343 -1.9795702 -0.05549724 -0.2199751 -0.228333 -0.16305937
-0.0058173747 0.069794625 -0.7645862 -1.3065746 0.13049263 0.19985943 -0.0032426377 0.28239688
0.6120564 0.044412993 0.1750181 0.02062824 0.009508634 -0.30116174 -0.03473475 0.81339544
0.1361113 -1.8705446 -3.754516 -0.08832761 0.24262632 -3.3044226 -0.26809415 -0.030602902
0.0025790036 0.028703108 -0.706009 0.2484747 0.02675791 -3.6100965 -2.7245111 0.054295063
-0.64514965 -0.36567158 -0.2151014 0.37589544 -0.81782085 -0.35197788 -0.08774936 0.3808668
-2.0898943 0.1289082 0.37894547 0.52269834 0.0029027313 -0.008602694 0.010084578 -0.0075528473
0.15440755 0.025256202 -0.092629075 0.17163023 0.062439784 -0.3931224 0.12891378 -0.17092554
0.034441926 0.026737582 -0.1596803 0.083210826 0.046083473 0.012507654 0.030487768 -0.03809824
0.056773152 -0.007890135 -0.09260899 -0.08706446 0.010497898 -0.09097742 -0.0619704 -0.17865208
-0.028925436 -0.060009837 0.062796205 -0.048417654 -0.022811726 -0.07922979 -0.0844847 0.10583008
-0.12298601 -0.18209843 -0.040868007 0.038859732 0.020405618 -0.11701368 -0.044404596 -0.056245714
0.09568884 -0.03467951 0.1290587 -0.00047766595 -0.12195834 -0.08390087 -0.13422634 0.0015554567
-0.007895847 0.2033065 -0.031829715 0.12369301 -0.05890248 0.3887428 -0.0041697323 -0.19962199
0.20066412 -0.5250948 -0.0024323016 -0.09750645 0.073407784 -0.1006564 0.34059846 -2.0120165

layers.2.bias f4 [40]
00000000: 2139 90bf 0181 163f 57eb 223f acfa 8ebf
00000010: 374b 8c3e 8f93 1bbe b832 8d3d dc13 9f3e
00000020: 0b1e cfbc f576 51bd 938e 2abf 105c 8f3e
00000030: c151 fdbd 70df cfbf 271e 253f 9c06 aabf
00000040: 44c2 6d3e 8db0 d7bc 66ef 74be f09e c9be
00000050: 71d3 b53d 88a9 f2bd 699f cebd d10c 60bf
00000060: cd1b 053d 6b25 53bd 1597 7ebe 05da 6f3f
00000070: b1be dfbd 6b64 ebbd 17d6 0c3c 6349 6abf
00000080: f6ae 02be 8692 92bd ee42 12bf 16df bdbd
00000090: 9ef3 193f 4c4f 623e 0826 e5bd 6f50 e03e
-1.1267434 0.58790594 0.6364035 -1.1170249 0.27401134 -0.15193008 0.068944395 0.3106984
-0.02528288 -0.051138837 -0.666238 0.27999926 -0.12369109 -1.6240063 0.64499134 -1.3283267
0.23218638 -0.026329303 -0.23919448 -0.39379072 0.0887822 -0.11848742 -0.10088999 -0.87519556
0.032497216 -0.051549356 -0.2486232 0.93692046 -0.109250434 -0.114937626 0.008595965 -0.9151823
-0.12762055 -0.071568534 -0.57133377 -0.09271066 0.60137355 0.22100562 -0.111888945 0.43811366

layers.4.weight f4 [1, 40]
00000000: 8a09 823e d17a e7be 4ebb e1be f2e2 a33e
00000010: 944f abbe adab f9bb 16bf c6be 30a6 3d3f
00000020: 520f 463f 5e02 05be 1fd7 d7be c1ac 07bf
00000030: e1a1 df3c 02c5 123f 36c7 32be da18 b83e
00000040: 339d 88be 4557 2d3d ea39 0dc0 445f 15bf
00000050: 4346 90be 1d8c 613c cf77 273d ddb9 b9be
00000060: 837e 5dbf 6838 a4bc ebe3 24bf 1aae 31bf
00000070: f2fb 42bf c233 10bf 50de c2be 62be 513f
00000080: f4e3 b7bd 2d7c afbd b30b 283e 59cb cdbc
00000090: 1f93 6d3f 53c8 b2be 0c25 083f 6f60 943f
0.25397903 -0.4521089 -0.44088215 0.32009083 -0.3345915 -0.0076193423 -0.38817662 0.74081707
0.77367127 -0.12989184 -0.42156312 -0.52997977 0.02729887 0.5733186 -0.17458805 0.3595646
-0.26682433 0.042319555 -2.2066598 -0.5834849 -0.28178605 0.013766316 0.040885743 -0.36274615
-0.86521167 -0.020046428 -0.64410275 -0.6940628 -0.7616569 -0.56328976 -0.38060236 0.81931126
-0.089790255 -0.085686065 0.16410713 -0.025121378 0.92802614 -0.3491846 0.5318153 1.1591929
