checkpoints/iter_40000.pt (torch_old, 8192 bytes, 5 tensors)

layers.0.weight f4 [40, 1]
-0.3499874 0.03669154 0.10506713 0.5192411 -0.45895144 0.019346897 -0.5248441 0.37010956
0.5102021 0.71674865 -0.5166705 -0.61823195 0.43108398 0.099437274 -0.002632185 -0.014674279
-0.14650358 0.05150538 0.24586274 -0.04687147 -0.6186753 -0.31797418 -0.8203841 -0.6159117
-0.70009637 0.61656725 -0.09400066 -0.11168131 0.31032068 0.44536838 -0.29228505 0.37154424
-0.06414495 0.7863616 0.49217114 -0.8031663 0.78949964 0.08091297 0.047738552 -0.038538255
00000000: 8c31 b3be de49 163d 6f2d d73d fcec 043f
00000010: affb eabe 627d 9e3c 2f5c 06bf 007f bd3e
00000020: 9b9c 023f d77c 373f 8544 04bf 7344 1ebf
00000030: 0ab7 dc3e c5a5 cb3d bc80 2cbb 636c 70bc
00000040: 0905 16be 4ef7 523d 71c3 7b3e 4cfc 3fbd
00000050: 8161 1ebf 83cd a2be b104 52bf 64ac 1dbf
00000060: 8439 33bf 5ad7 1d3f 6b83 c0bd 2cb9 e4bd
00000070: 5ae2 9e3e 5307 e43e 63a6 95be 0c3b be3e
00000080: 6d5e 83bd fe4e 493f dbfd fb3e 4e9c 4dbf
00000090: a61c 4a3f b3b5 a53d 8089 433d 4ada 1dbd

layers.0.bias f4 [40]
-0.25316152 0.33413354 0.15805222 -0.4612624 -0.6743657 0.087543905 -1.2995434 -0.76579547
-0.57636464 -2.6413803 -1.6953721 -0.45995158 -1.355963 0.2026481 0.07177577 0.18891072
0.0668263 -0.08614045 -0.14306843 0.23127805 -1.9134246 -0.9505479 -1.8015211 -0.64071137
-2.775933 -1.0140098 0.21530113 0.6375114 0.098937325 -1.8695964 0.016736854 -0.28125796
0.33309498 -2.199381 -1.250854 -1.3933315 -1.8910075 0.55553484 -0.31232584 0.15765812
00000000: 639e 81be 8d13 ab3e 71d8 213e 962a ecbe
00000010: 3ba3 2cbf 384a b33d 7057 a6bf 2c0b 44bf
00000020: a28c 13bf 600c 29c0 f401 d9bf c67e ebbe
00000030: 3290 adbf fc82 4f3e 2dff 923d d071 413e
00000040: 3adc 883d 676a b0bd 8880 12be 27d4 6c3e
00000050: 19eb f4bf 1b57 73bf 3e98 e6bf a905 24bf
00000060: e3a8 31c0 13cb 81bf e677 5c3e f233 233f
00000070: a79f ca3d ef4e efbf ba1b 893c 0b01 90be
00000080: 6d8b aa3e a9c2 0cc0 fc1b a0bf b058 b2bf
00000090: 890c f2bf 8837 0e3f 2ce9 9fbe 2171 213e

layers.2.weight f4 [40, 40]
-0.022748832 -0.44957355 0.08898032 -0.08309397 -0.10837113 -0.6139991 -0.3566787 -0.25739738
-0.00014540856 0.05623089 0.35642877 0.12688279 0.010685579 -0.48982787 -0.22538267 0.2331832
-0.70243627 -0.06388521 -0.24014308 0.04205898 0.3764175 0.72060895 0.16976453 0.18133096
0.59967333 -0.25499672 -0.12820293 -0.40428573 -0.11504046 0.02504258 -0.031970635 -0.069261864
0.1552921 -0.058768798 -0.06707251 0.26975515 -0.12250271 -1.4118332 -0.068929546 0.9898649
0.27179974 -0.0067145266 -3.7974849 0.14108957 0.09036227 -1.056241 -0.44564605 0.02952438
-0.006686321 0.07254307 -0.29985893 0.29820332 0.10684131 -1.4461308 -1.4247118 0.29288223
-1.4346213 0.34026647 -0.45874363 0.368117 -0.34858167 -0.20015065 -0.15757938 0.10015209
-1.5638393 -0.08813858 0.2896656 -0.06456833 -0.4404583 -0.10118675 -0.033808276 -0.12811173
0.47651 -0.08677812 -0.08484658 -0.048066232 -0.0774697 -0.6113054 0.035540298 -0.020218767
0.2084801 0.52291805 0.36729255 -0.47761288 0.016207317 -0.05636051 -0.76017725 -0.26065555
-0.67233974 -0.9516885 -0.86733174 0.27986333 -1.6529698 0.56491363 -0.21361868 0.20289113
-0.74400175 -1.4970438 -0.03169905 0.3338905 -0.34671482 0.40707463 -0.16964217 0.17079645
-2.2981074 -0.42728776 0.2517855 -0.39235455 1.1693974 0.12511806 0.08661969 0.09450815
0.655242 -0.886626 -0.044999618 -0.15594637 -0.9018535 -1.9198525 -0.12119176 0.8380264
-0.1154655 0.61977595 -0.050221328 0.03798734 -0.22142048 0.2153491 0.030480428 -0.22597128
-0.011087823 0.05863068 -0.0972686 -0.16024639 -0.064699784 0.107952535 0.42844602 -0.6018929
0.32750398 -0.3335334 0.11757616 -2.0619693 -0.025100421 -0.1895807 -0.1979352 -0.13266158
0.024577634 0.0906665 -0.73419076 -1.9076009 0.13323477 -0.14917523 0.027154488 0.27649868
0.11010045 0.053560786 0.18381198 0.051026102 0.034953512 -0.29037344 -0.03473475 0.39075807
0.113852836 -1.740242 -3.2487495 -0.08832761 0.1811098 -3.617691 -0.23037113 -0.030602902
0.0025790036 0.028703108 -0.5507385 0.21106258 0.02675791 -3.7916532 -2.8477714 0.17881893
-0.73128086 -0.11535285 -0.2151014 0.3494066 -0.74957347 -0.30889267 -0.07864019 0.3232156
-1.4946927 0.1289082 0.37046066 0.48282933 0.0029027313 -0.008602694 -0.06781481 -0.0075528473
0.2524664 0.025256202 -0.092629075 0.13362263 0.062439784 -0.57955545 0.12891378 0.1492653
0.034441926 0.026737582 -0.1596803 0.083210826 0.046083473 0.012507654 0.030487768 -0.03809824
0.056773152 -0.007890135 -0.09260899 -0.08706446 0.010497898 -0.09097742 -0.0619704 -0.17865208
-0.028925436 -0.060009837 0.062796205 -0.048417654 -0.022811726 -0.07922979 -0.0844847 0.10583008
-0.12298601 -0.18209843 -0.040868007 0.038859732 0.020405618 -0.11701368 -0.044404596 -0.056245714
0.09568884 -0.03467951 0.1290587 -0.00047766595 -0.12195834 -0.08390087 -0.13422634 0.0015554567
-0.007895847 0.17327188 -0.05922577 0.12714861 -0.05890248 0.1684905 -0.0041697323 -0.15256034
0.21305878 -0.41603783 -0.0024323016 -0.09750645 0.114520885 -0.11411438 0.2539109 -1.3202107
00000000: c25b babc 812e e6be 503b b63d 2c2d aabd
00000010: aff1 ddbd 0c2f 1dbf 979e b6be 97c9 83be
00000020: d078 18b9 5d52 663d d57d b63e 90ed 013e
00000030: 9112 2f3c b8ca fabe b7ca 66be 94c7 6e3e
00000040: ddd2 33bf 40d6 82bd 11e8 75be 0946 2c3d
00000050: cbb9 c03e d479 383f c1d6 2d3e d3ae 393e
00000060: 3184 193f ee8e 82be a147 03be 8afe cebe
00000070: 559a ebbd 1926 cd3c a4f3 02bd 2ad9 8dbd
00000080: e404 1f3e 8db7 70bd 505d 89bd 591d 8a3e
00000090: b3e2 fabd f3b6 b4bf ef2a 8dbd c967 7d3f
000000a0: 5629 8b3e 8805 dcbb fe09 73c0 c979 103e
000000b0: db0f b93d e832 87bf b82b e4be 1ddd f13c
000000c0: ed18 dbbb 7691 943d 1c87 99be 1bae 983e
000000d0: 9ecf da3d d01a b9bf f55c b6bf a9f4 953e
000000e0: aca1 b7bf 6837 ae3e 72e0 eabe d579 bc3e
000000f0: 4c79 b2be 4bf4 4cbe 7d5c 21be 8a1c cd3d
00000100: e32b c8bf 0082 b4bd 0d4f 943e 673c 84bd
00000110: c083 e1be 003b cfbd 8c7a 0abd b92f 03be
00000120: 1ef9 f33e bab8 b1bd 0bc4 adbd 19e1 44bd
00000130: 6fa8 9ebd 837e 1cbf b492 113d d4a1 a5bc
00000140: cf7b 553e f5dd 053f c50d bc3e ad89 f4be
00000150: 35c5 843c 47da 66bd fa9a 42bf a574 85be
00000160: 751e 2cbf dca1 73bf 7409 5ebf 3f4a 8f3e
00000170: 8494 d3bf 2e9e 103f dbbe 5abe b1c2 4f3e
00000180: e676 3ebf 229f bfbf ddd6 01bd b2f3 aa3e
00000190: 9b84 b1be 166c d03e adb6 2dbe 44e5 2e3e
000001a0: 3114 13c0 76c5 dabe 07ea 803e b2e2 c8be
000001b0: d0ae 953f f31e 003e aa65 b13d 7d8d c13d
000001c0: f1bd 273f ecf9 62bf 8551 38bd 68b0 1fbe
000001d0: dfdf 66bf babd f5bf 6333 f8bd e688 563f
000001e0: 2d79 ecbd a3a9 1e3f e1b4 4dbd 9d98 1b3d
000001f0: 0dbc 62be 7984 5c3e 17b2 f93c 0465 67be
00000200: b3a9 35bc b926 703d c234 c7bd a117 24be
00000210: 5281 84bd 3816 dd3d 475d db3e a715 1abf
00000220: 9aae a73e e4c4 aabe c5cb f03d 4ef7 03c0
00000230: 669f cdbc 7121 42be 86af 4abe 70d8 07be
00000240: 0957 c93c 5caf b93d edf3 3bbf 442c f4bf
00000250: b26e 083e 64c1 18be 1773 de3c 3c91 8d3e
00000260: 587c e13d 8e62 5b3d 3539 3c3e bf00 513d
00000270: 6a2b 0f3d d4ab 94be 0646 0ebd 7111 c83e
00000280: ad2b e93d 40c0 debf 83eb 4fc0 1be5 b4bd
00000290: d974 393e 4088 67c0 69e6 6bbe f0b2 fabc
000002a0: 8004 293b c822 eb3c 33fd 0cbf ca20 583e
000002b0: 6833 db3c 72aa 72c0 e341 36c0 4f1c 373e
000002c0: 3935 3bbf 1d3e ecbd 8b43 5cbe 6ce5 b23e
000002d0: 0ce4 3fbf 2e27 9ebe 1c0e a1bd 847c a53e
000002e0: 1752 bfbf 8300 043e 05ad bd3e 6835 f73e
000002f0: c03b 3e3b 50f2 0cbc 7ee2 8abd e07d f7bb
00000300: 4743 813e 18e6 ce3c 50b4 bdbd 5fd4 083e
00000310: dcc0 7f3d bf5d 14bf f901 043e 01d9 183e
00000320: fa12 0d3d c608 db3c 3c83 23be 706a aa3d
00000330: 06c2 3c3d e7ec 4c3c 7cc1 f93c e60c 1cbd
00000340: f78a 683d a045 01bc c8a9 bdbd da4e b2bd
00000350: 60ff 2b3c 5f52 babd add4 7dbd 92f0 36be
00000360: 09f5 ecbc e0cc 75bd 4c9b 803d 9751 46bd
00000370: a8df babc 3a43 a2bd 5006 adbd 71bd d83d
00000380: 17e0 fbbd 0378 3abe 3665 27bd 622b 1f3d
00000390: af29 a73c dea4 efbd 98e1 35bd e861 66bd
000003a0: 83f8 c33d 1a0c 0ebd f727 043e 3d6f fab9
000003b0: 4bc5 f9bd 38d4 abbd a172 09be 77e0 cb3a
000003c0: 955d 01bc 2f6e 313e b996 72bd 3f33 023e
000003d0: ba43 71bd c688 2c3e 40a2 88bb c738 1cbe
000003e0: 152c 5a3e e902 d5be 4067 1fbb 76b1 c7bd
000003f0: ed89 ea3d cdb4 e9bd 9c00 823e aafc a8bf

layers.2.bias f4 [40]
-1.0789814 0.47070134 0.5615061 -1.0761226 0.24814905 -0.15193008 0.08917507 0.2633445
-0.047952686 -0.051138837 -0.5092385 0.24307488 -0.12369109 -1.4677908 0.7220261 -1.2514945
0.2339198 -0.026329303 -0.22077899 -0.3259224 0.10353321 -0.080994286 -0.10088999 -0.73674583
-0.00333692 -0.051549356 -0.1826879 0.8388691 -0.06535728 -0.15124086 0.024307186 -0.74703443
-0.12762055 -0.071568534 -0.5260727 -0.09271066 0.49759805 0.2786659 -0.08322686 0.41038373
00000000: 101c 8abf c4ff f03e ddbe 0f3f 63be 89bf
00000010: c91a 7e3e 8f93 1bbe 6ba1 b63d 17d5 863e
00000020: 096a 44bd f576 51bd 745d 02bf 9fe8 783e
00000030: c151 fdbd 92e0 bbbf b4d6 383f f930 a0bf
00000040: ac88 6f3e 8db0 d7bc e313 62be 4ddf a6be
00000050: 3809 d43d 55e0 a5bd 699f cebd 609b 3cbf
00000060: 3ab0 5abb 6b25 53bd 8912 3bbe 20c0 563f
00000070: 0ada 85bd e2de 1abe dd1f c73c a63d 3fbf
00000080: f6ae 02be 8692 92bd b3ac 06bf 16df bdbd
00000090: 2cc5 fe3e 4cad 8e3e d872 aabd d11d d23e

layers.4.weight f4 [1, 40]
0.30832317 -0.43574694 -0.39780483 0.3407008 -0.42980987 -0.0076193423 -0.30505916 0.6445917
0.77832055 -0.12989184 -0.28857398 -0.57583755 0.02729887 0.5684682 -0.2547004 0.36615685
-0.13868833 0.042319555 -1.8095858 -0.59531873 -0.21387321 0.033566438 0.040885743 -0.37668088
-0.63223785 -0.020046428 -0.59212387 -0.68507254 -0.47012147 -0.5673446 -0.4307531 0.8533275
-0.089790255 -0.085686065 0.25921535 -0.025121378 0.9116861 -0.3941304 0.5283369 1.1056644
00000000: 89dc 9d3e 391a dfbe 13ad cbbe 5670 ae3e
00000010: 0a10 dcbe adab f9bb b730 9cbe f603 253f
00000020: 0440 473f 5e02 05be f8bf 93be 176a 13bf
00000030: e1a1 df3c 2287 113f 1768 82be e978 bb3e
00000040: 5004 0ebe 4557 2d3d 82a0 e7bf cf66 18bf
00000050: 9401 5bbe f67c 093d cf77 273d 51dc c0be
00000060: 57da 21bf 6838 a4bc 6e95 17bf ea60 2fbf
00000070: c3b3 f0be 7f3d 11bf ac8b dcbe ac73 5a3f
00000080: f4e3 b7bd 2d7c afbd e0b7 843e 59cb cdbc
00000090: 4364 693f 76cb c9be 1641 073f 6986 8d3f
