checkpoints/iter_20000.pt (torch_old, 8192 bytes, 5 tensors)

layers.0.weight f4 [40, 1]
000000 29 45 a1 be 2d 41 8e 3d 31 c7 fe 3d b9 a6 ec 3e
       -0.31498078 0.06946025 0.124403365 0.4622095
000010 3e bb cc be e3 2c 89 3d 76 5b fd be 33 75 a6 3e
       -0.39986604 0.066980146 -0.49483842 0.3251129
000020 17 a0 ea 3e 08 c4 1b 3f 56 3c d9 be 0d 7a 15 bf
       0.45825264 0.60845995 -0.42428845 -0.5838936
000030 62 9f c1 3e d7 14 20 3e 0f 67 b2 3d 4a 0a e0 bd
       0.37816912 0.1563295 0.08711063 -0.109394625
000040 2d cd 8c be 94 e7 cd 3d 1d c4 38 3e 2e 5f c0 bd
       -0.27500287 0.10053936 0.18043561 -0.09393154
000050 70 66 14 bf ca 04 b7 be 10 d6 4c bf 6f 22 09 bf
       -0.5796881 -0.3574584 -0.80014133 -0.53568166
000060 64 60 2d bf 2f 89 11 3f c7 b6 c7 bd a3 95 f5 bd
       -0.67725205 0.5684995 -0.09751659 -0.119914316
000070 53 a8 83 3e ab f2 b8 3e 63 d7 a9 be 4a 3b d5 3e
       0.2571436 0.3612264 -0.3317214 0.41646796
000080 47 e3 03 be b2 b6 39 3f 06 77 be 3e 3c 68 3f bf
       -0.12879668 0.72544396 0.37200183 -0.74768424
000090 1a 08 31 3f 44 cd 5e 3d 80 89 43 3d 80 5e 32 bd
       0.69152987 0.054394975 0.047738552 -0.043547153

layers.0.bias f4 [40]
000000 27 d8 1f be 07 45 d7 3e 4b d2 4c 3e 38 6a 02 bf
       -0.156098 0.4204485 0.20002095 -0.50943327
000010 ee c8 31 bf 97 dd a1 3e 7e 43 a2 bf d1 9b 35 bf
       -0.6944722 0.31614372 -1.2676847 -0.7094088
000020 b6 11 18 bf ec 23 15 c0 de 0b af bf 70 f6 de be
       -0.59402025 -2.3303175 -1.3675497 -0.43547392
000030 ab 94 98 bf 18 56 92 3e 20 ff 93 3e f0 ae fd 3e
       -1.192037 0.2858131 0.28905582 0.4954753
000040 a8 c7 b1 3d 62 23 3c be bc 06 25 be f2 48 e2 3e
       0.086806595 -0.18372872 -0.1611585 0.44196278
000050 ac 6c d0 bf 2f 18 2b bf bc bb dc bf 45 31 3c bf
       -1.6283164 -0.66833776 -1.7244792 -0.7351268
000060 f9 29 18 c0 b2 99 87 bf 60 95 ce 3e 73 d3 39 3f
       -2.3775618 -1.0593779 0.4034834 0.7258827
000070 e1 25 2a bc 3b 02 c2 bf 45 15 74 bd 9c f1 98 be
       -0.010385008 -1.5156931 -0.059590597 -0.29871833
000080 78 ba 34 3f 96 3d 00 c0 c8 44 92 bf 6d e0 b6 bf
       0.7059703 -2.003759 -1.142724 -1.4287239
000090 bc 99 e5 bf 1b 2f 1f 3f 2c e9 9f be d4 74 52 3e
       -1.7937541 0.6218125 -0.31232584 0.20552379

layers.2.weight f4 [40, 40]
000000 b2 19 21 bc 4f e6 35 bf fc 34 41 3d 50 1c 22 3d
       -0.009832786 -0.7105455 0.04716967 0.039577782
000010 f5 3d 36 bd 7f ec 8f bf f4 0e a4 be f0 a0 0a be
       -0.04449268 -1.1244048 -0.32042658 -0.13537955
000020 46 a5 fb 3d 92 26 d5 3d 56 d5 5e 3e 51 7f 01 3e
       0.12287383 0.10407747 0.21761069 0.12646224
000030 06 fb 84 3d 68 92 40 be ac e0 b1 be a6 2f 54 3e
       0.064931914 -0.1880585 -0.34741724 0.20721301
000040 6c 68 cf be f4 69 8e 3e d5 63 f1 bd d8 1e 29 3e
       -0.40509355 0.2781521 -0.117866196 0.16515672
000050 38 1b 40 3e 2e b2 22 3f fa 97 0e 3e 2c 04 36 3e
       0.18760383 0.6355313 0.13925162 0.17775029
000060 30 f6 99 3e d8 21 07 be f1 ec 01 bd 7c 90 9a bd
       0.3007064 -0.13196504 -0.031720106 -0.075470895
000070 9f 10 f7 3b 5a 1f a0 3d 41 e5 ac b9 dd cf 59 3d
       0.007539823 0.0781848 -0.00032977204 0.05317675
000080 6b 13 35 bd 80 d1 bc ba 40 2e 29 bc e7 c7 8c 3e
       -0.04420797 -0.0014405698 -0.010325968 0.27496263
000090 33 9c 83 bd 35 27 c1 bf ef 2a 8d bd b5 99 53 3f
       -0.06426277 -1.509009 -0.068929546 0.82656413
0000a0 90 6e 63 3e a8 3d 2f bf 36 48 cf bf c9 79 10 3e
       0.22210145 -0.68453455 -1.6193912 0.14108957
0000b0 2e cb 53 3d f0 04 94 bf 10 e9 39 bf 1d dd f1 3c
       0.05170744 -1.1564007 -0.7262125 0.02952438
0000c0 ed 18 db bb 76 91 94 3d bf 7a 4d be ed 2b 5b 3e
       -0.006686321 0.07254307 -0.20066355 0.21403475
0000d0 9e cf da 3d 3a ac a3 bf 58 97 91 bf e2 b7 b5 3e
       0.10684131 -1.2786934 -1.1374311 0.35491854
0000e0 83 34 23 bf e8 9e 6a be 72 e0 ea be 8e 53 00 3f
       -0.63752 -0.2291218 -0.45874363 0.50127494
0000f0 51 12 60 be 20 e8 eb ba fb 50 3d be 0b b7 67 3d
       -0.21881987 -0.0017998256 -0.18487923 0.056571048
000100 39 94 39 bf 00 82 b4 bd b9 d3 98 3e 3d 74 1b 3e
       -0.72491795 -0.08813858 0.29849032 0.1518106
000110 33 5d d1 be 00 3b cf bd 0f d2 86 bd b9 2f 03 be
       -0.40891418 -0.10118675 -0.06583034 -0.12811173
000120 bb 55 04 3f ba b8 b1 bd 0b c4 ad bd b2 65 71 bd
       0.51693314 -0.08677812 -0.08484658 -0.058934875
000130 6f a8 9e bd ff 6c 62 bf b4 92 11 3d 25 8d 54 bc
       -0.0774697 -0.88447565 0.035540298 -0.012973105
000140 00 f0 c1 3d 05 e8 84 3e c9 a2 8b 3d b8 b6 ac be
       0.094696045 0.25958267 0.06818158 -0.33733153
000150 90 fd 6e bc 72 ad 00 3e 9e 65 69 bf bc f0 9f be
       -0.014586821 0.12566164 -0.9117068 -0.31238353
000160 23 65 f8 be 0b 48 e7 be 6e d0 fb be bc 33 15 3e
       -0.4851466 -0.45172152 -0.49182457 0.14570516
000170 dc 50 1c bf 62 c8 c2 3e d6 2f b8 3d 27 77 de 3d
       -0.6106088 0.38043505 0.08993499 0.1086257
000180 46 69 bd be 43 b4 e2 bf 31 d0 a4 3d 1d 4f b0 3e
       -0.3699438 -1.7711262 0.08047522 0.3443536
000190 3f 58 ac be 75 ac ad 3e b1 47 46 be 22 97 d4 3d
       -0.33661076 0.33920637 -0.19363286 0.10380389
0001a0 3d 0a bc bf 3f cb c3 be 1d 4d 10 bd c6 c4 62 be
       -1.4690624 -0.38241002 -0.03522979 -0.22145376
0001b0 f8 c0 11 3f bd 01 77 3a 54 33 77 3c fd 73 86 3e
       0.5693507 0.0009422561 0.015087921 0.26260367
0001c0 2b 3e 2c 3f 6f 39 0c bf b8 e3 4d be 0e 3f 33 be
       0.6728236 -0.54775137 -0.20106399 -0.17504522
0001d0 74 7c 4e bf 69 63 f3 bf 63 33 f8 bd 68 0a 30 3f
       -0.8065865 -1.9014713 -0.12119176 0.6876588
0001e0 40 c4 fd bc 66 91 78 3e a7 ea 7b bd 6a 45 a8 3d
       -0.030977368 0.24274215 -0.06150308 0.08216365
0001f0 81 72 0c be b9 35 5f 3e 3e cc ed 3d 20 95 c2 bd
       -0.13715555 0.21797837 0.11611222 -0.095010996
000200 42 55 d2 3d 99 1d c1 3d b0 25 09 bc 39 a6 9a bd
       0.10270168 0.094294734 -0.008370802 -0.07551236
000210 1b a4 da bd 10 f6 9a 3d 16 cc 6b bd 92 f7 9c be
       -0.10675832 0.07566464 -0.05756768 -0.3065763
000220 c7 38 01 3e 7c 91 03 bf 53 2f 9f 3d 47 00 88 bf
       0.12619315 -0.51393867 0.07772698 -1.0625085
000230 84 0b 84 3d 38 6d c6 bd cd 8b e6 bd e0 5c 41 bd
       0.06447509 -0.096888006 -0.11257134 -0.047207713
000240 76 b0 ee 3d 09 6a 72 3e 14 a9 64 bf 62 de 35 c0
       0.11654751 0.23673262 -0.8932049 -2.8416982
000250 23 c9 30 3e 44 6b 59 be e7 57 e2 3d 24 8d 91 3e
       0.17264228 -0.21232325 0.11051922 0.28427994
000260 9f 2a 2c bd 2d 8a 1b 3e 8b 5c a6 3e 2b 5b 0b 3e
       -0.042032834 0.15189429 0.3249248 0.13608997
000270 fe 5d ed 3d 39 73 d2 be 06 46 0e bd d9 14 87 3d
       0.11590193 -0.41103533 -0.03473475 0.06595773
000280 3d fb 14 3d 6c 2e c6 bf d3 5f ae bf 1b e5 b4 bd
       0.036372412 -1.5482917 -1.3622993 -0.08832761
000290 9f 15 16 bd 82 40 3c c0 51 e9 b0 be f0 b2 fa bc
       -0.036641713 -2.9414372 -0.34553006 -0.030602902
0002a0 80 04 29 3b c8 22 eb 3c d9 19 9d be 9d aa e1 3d
       0.0025790036 0.028703108 -0.30683783 0.1101887
0002b0 68 33 db 3c 2e 45 46 c0 1e 3a 17 c0 96 91 23 3e
       0.02675791 -3.0979724 -2.3629222 0.15973505
0002c0 f4 9c 17 bf 5c 90 b4 be 8b 43 5c be e6 0e d2 3e
       -0.59223866 -0.35266387 -0.2151014 0.41026992
0002d0 ae 45 f9 be 09 2c 2b be 6d d1 15 be 3b 86 34 3e
       -0.48685974 -0.16716017 -0.14630671 0.1762933
0002e0 42 9e 45 bf 83 00 04 3e 3e 63 e9 3e 2e 54 22 3f
       -0.7719461 0.1289082 0.45583528 0.634097
0002f0 c0 3b 3e 3b 50 f2 0c bc f5 3b 18 be e0 7d f7 bb
       0.0029027313 -0.008602694 -0.14866622 -0.0075528473
000300 2d e7 b2 3e 18 e6 ce 3c 50 b4 bd bd 94 35 ec bc
       0.34941998 0.025256202 -0.092629075 -0.028834142
000310 dc c0 7f 3d 45 d4 51 bf f9 01 04 3e e9 06 8b 3e
       0.062439784 -0.8196452 0.12891378 0.2715371
000320 87 4e 74 3d aa 5f 0e 3d 3c 83 23 be 70 6a aa 3d
       0.059645202 0.0347592 -0.1596803 0.083210826
000330 a7 33 88 3d c7 bd cd 3c 6a 89 17 3d e6 0c 1c bd
       0.06650477 0.025114907 0.036996283 -0.03809824
000340 f7 8a 68 3d a0 45 01 bc 0c 8f bc bd 36 65 84 bd
       0.056773152 -0.007890135 -0.092069715 -0.06464617
000350 60 ff 2b 3c 5f 52 ba bd ad d4 7d bd ca 8d 1f be
       0.010497898 -0.09097742 -0.0619704 -0.15581432
000360 50 90 c2 bc e0 cc 75 bd 4c 9b 80 3d 53 e7 b1 bc
       -0.023750454 -0.060009837 0.062796205 -0.02171675
000370 57 a9 80 bc 24 7a 71 bd f5 fa 86 bd d7 61 02 3e
       -0.015705748 -0.058954373 -0.06590835 0.12732635
000380 17 e0 fb bd 03 78 3a be 2d 84 8f bc 72 c3 80 3d
       -0.12298601 -0.18209843 -0.017519081 0.06287278
000390 af 29 a7 3c de a4 ef bd a7 45 bb bc e8 61 66 bd
       0.020405618 -0.11701368 -0.022860361 -0.056245714
0003a0 b4 9d fb 3d 1a 0c 0e bd f7 27 04 3e b0 13 9d 3c
       0.12285939 -0.03467951 0.1290587 0.019174427
0003b0 4b c5 f9 bd 38 d4 ab bd a1 72 09 be 4d a2 fa 3c
       -0.12195834 -0.08390087 -0.13422634 0.03059497
0003c0 95 5d 01 bc e5 ab 1a 3e d0 a1 8f bd f8 8d 07 3e
       -0.007895847 0.15104635 -0.07013285 0.1323775
0003d0 ba 43 71 bd fa 03 ae 3d 40 a2 88 bb cf fb f7 bd
       -0.05890248 0.08496852 -0.0041697323 -0.121085756
0003e0 3f 76 3c 3e 87 c1 df be 40 67 1f bb 76 b1 c7 bd
       0.18404482 -0.43702337 -0.0024323016 -0.09750645
0003f0 82 1c 7a be d9 6b e5 bd 6a 9b b6 3d 4d d0 77 bf
       -0.24424937 -0.11202211 0.08916362 -0.96802217

layers.2.bias f4 [40]
000000 ca d1 70 bf 45 45 c3 3e 75 3a 0b 3f 27 08 61 bf
       -0.9407011 0.38138786 0.54386073 -0.87903064
000010 e3 ed a6 3e cf 79 00 be 12 32 14 3e 18 17 be 3d
       0.32603368 -0.12546466 0.14472225 0.092817485
000020 46 3c ca 3c f5 76 51 bd e0 8d 48 be 95 64 4e 3e
       0.024686944 -0.051138837 -0.19585371 0.20155556
000030 c1 4d e0 bd 2e 65 a1 bf ab dc 23 3f 2e 41 89 bf
       -0.109523304 -1.2609003 0.6400859 -1.0723016
000040 f1 0a 97 3e ed bc b1 3b 43 4b 3b be a8 43 e1 be
       0.29500535 0.005424133 -0.18290429 -0.4399693
000050 eb 8b 3e 3e 55 e0 a5 bd f2 97 8d bd c6 13 e2 be
       0.18608062 -0.080994286 -0.06913747 -0.4415571
000060 c0 80 cb 3d 6b 25 53 bd 99 da c8 bc 13 c5 24 3f
       0.099366665 -0.051549356 -0.024518298 0.6436321
000070 72 1d 2b 3e 00 4e 60 bd 5a 1e af 3d 1a 3a d7 be
       0.16710451 -0.054761887 0.08550711 -0.42036515
000080 f4 7f da bd 86 92 92 bd e9 2f d7 be 16 df bd bd
       -0.10668936 -0.071568534 -0.4202874 -0.09271066
000090 7f ce 71 3e c1 b8 b5 3e 27 bd 7d bd b8 02 70 3e
       0.23613928 0.3549252 -0.061947968 0.23438537

layers.4.weight f4 [1, 40]
000000 8b c1 99 3e 0d 8f b6 be 38 d7 d7 be 1e a0 12 3f
       0.30030474 -0.35656014 -0.42156386 0.5727557
000010 2b e6 c7 be 35 c0 07 bc 45 2f bf be 9c 96 10 3f
       -0.39042792 -0.008285572 -0.3734075 0.5647981
000020 a1 2b 57 3f 5e 02 05 be 23 ef 7d be 57 81 59 be
       0.8405095 -0.12989184 -0.24798255 -0.21240745
000030 96 b6 16 3d 26 0b e9 3e ee f1 ce be ca 2c 12 3f
       0.03679522 0.45516318 -0.40418953 0.5709959
000040 03 d5 21 be 66 70 97 3d 7c 2b 41 bf 17 88 e0 be
       -0.15803914 0.07394485 -0.75456977 -0.43853828
000050 7d c7 b3 be f6 7c 09 3d 5f 7f 94 3d 70 b2 ac be
       -0.35113135 0.033566438 0.072508566 -0.33729887
000060 f4 1a f3 be 68 38 a4 bc c3 40 eb be 1a da 16 bf
       -0.474815 -0.020046428 -0.45947847 -0.58926547
000070 e1 f7 18 bf 6c 71 f8 be 70 8c b1 be c6 ee 42 3f
       -0.59753233 -0.48524034 -0.34677458 0.7614559
000080 7e 7a f0 bd 2d 7c af bd a6 f2 fe 3e 59 cb cd bc
       -0.117421135 -0.085686065 0.497945 -0.025121378
000090 3e 04 62 3f df 74 d9 be ab 7e 21 3f 41 ea 64 3f
       0.88287723 -0.42471978 0.63083905 0.89419943
