checkpoints/iter_0.pt (torch_old, 8192 bytes, 5 tensors)

layers.0.weight f4 [40, 1]
00000000: 6fe9 2bbf 019a 133f 6b5d 583f f963 383f
00000010: 3b5c 47bf 52a1 fc3e e56b 07be 5699 953e
00000020: 0a2a c83e d7f9 4e3f 4550 2ebf 2d95 3fbf
00000030: 2b3b 1d3e 09d3 303f 5976 6d3f 933c 68bf
00000040: ea7f f8bd dd7a 5b3e c7db 203f 13a5 14be
00000050: 863f 9cbe 6bc5 58be 1389 2abf 265e 8dbe
00000060: c2bf cebe c51c 1e3f da37 8cbd 8ab5 c3bd
00000070: 9bc0 473f 4bc6 483e ff7d 65bf 07cd 493f
00000080: fd2e 4fbe 2b81 1c3f 7e03 863e 97fe 56bf
00000090: 2ffe 5a3f f325 4e3e 8089 433d 321d b9be
-0.67153066 0.57656866 0.84517545 0.72027546 -0.7787511 0.49341828 -0.13224752 0.2921855
0.39094573 0.80849975 -0.6809123 -0.74837 0.15354602 0.69072014 0.9275871 -0.9071743
-0.12133773 0.21433587 0.62835354 -0.14516096 -0.30517215 -0.21169059 -0.6661541 -0.27610892
-0.40380675 0.6176265 -0.0684659 -0.0955611 0.7802827 0.19606893 -0.8964538 0.7882847
-0.20232768 0.61134595 0.2617454 -0.83982223 0.85544103 0.20131664 0.047738552 -0.36155087

layers.0.bias f4 [40]
00000000: f60f d03d 5dc8 3d3f 85ba 6a3e b629 d5bd
00000010: 75b4 28be 2a22 e83e 9683 e8be d60c 41be
00000020: 4e53 a4be 1142 4ebf 8ed3 d7be c6ba cfbe
00000030: 3e3d dabe 9d47 6d3f a566 3f3f 1275 ef3e
00000040: 06e0 eabd 3d8b 3cba 9a13 d73e 8392 023f
00000050: 711b 3ebf 1338 0ebd 2793 0abf 4a96 9bbe
00000060: 758f 63bf ce42 e6be 5ab0 983e 76b0 943e
00000070: b69d 9b3e 138b 00bf 45ec 3b3e 4a9e 833d
00000080: 1525 783f 79ea 64bf ca8e b3be ffd7 5abf
00000090: e1e5 03bf e755 103f 2ce9 9fbe 2df2 29bd
0.10159294 0.74133855 0.22922714 -0.10408346 -0.16475089 0.45338565 -0.45412892 -0.18852553
-0.32094806 -0.8056956 -0.4215359 -0.40572184 -0.4262485 0.926874 0.74766 0.46769005
-0.1146851 -0.0007192379 0.42007142 0.5100481 -0.7426062 -0.034721445 -0.54130787 -0.303881
-0.88890773 -0.44972843 0.29822046 0.2904088 0.3039376 -0.5021221 0.18351848 0.064266756
0.9693158 -0.89420277 -0.35069877 -0.85485834 -0.5152264 0.56381077 -0.31232584 -0.041490722

layers.2.weight f4 [40, 40]
00000000: e123 913c c39d b83d 0df5 d2bd 501c 223d
00000010: 2709 b3bc 9685 cdbd b099 95bd f0a0 0abe
00000020: 46a5 fb3d 9226 d53d 2a4d 023e 7b39 8abb
00000030: 06fb 843d d353 6bbd a431 9fbd ba0b 193e
00000040: d5f1 ecbd 7b6f 793d f2ec 9cbd 5e03 b53d
00000050: ef26 00be bac1 183e 316a ed3c 080f cb3d
00000060: f242 143e d821 07be 4a2c 95bd c4ba 12be
00000070: fc9b 183c 5a1f a03d 3e8b 8b3d 96e2 163d
00000080: 8903 10bd 80d1 bcba 402e 29bc e98a 743d
00000090: 339c 83bd 8ce7 953c ef2a 8dbd 7ad1 9d3d
000000a0: 8c06 c23d 6fc6 5ebd cb8e 173c 34b8 1c3e
000000b0: 2ed6 513c 0f27 51bd a545 6abd 166d c03c
000000c0: 640b 7ebc ab04 743d bd95 15be 0cce ef3d
000000d0: 9ecf da3d a247 113e 7527 c03d be90 143e
000000e0: 3d5e 98bd efa3 8abd 9971 0abd 76a4 1c3e
000000f0: 8ab2 b03d 7321 14be c9c5 22bd 8e54 993d
00000100: afbb 973c c02d c4bd cbef 78bb 796e 8bbc
00000110: 6d18 b2bd 003b cfbd d9b7 84bc 3f63 ccbd
00000120: cac7 0c3e 9659 cfbd f9c7 cabd 8064 cf3d
00000130: 3c36 aabd 118e acbd b492 113d 2fc4 953c
00000140: 79fe 91bc e9a6 a4bd 07c0 8cbd 7b5f 0dbe
00000150: 39e8 7ebd 0b4b 00bc c2ad 19bd 8253 38bd
00000160: a822 69bd 0a9f 85bd 4bbe 65bd 1026 103e
00000170: d29c e5bd 74ba 983d f9df 84bb b272 11bc
00000180: 438b 2d3d b454 61bd d10f f4bd 174f 71bd
00000190: b346 053d f8b6 153e 994a dbbc 502e ff3d
000001a0: 0edf 11be 08f7 b93d 6f8d 353d c8c7 ff3d
000001b0: 151b 113e 2878 73bd cfe2 b33c ff0f 36bd
000001c0: ae48 983d 78d5 fe3c f09a 4dbc d116 d9bc
000001d0: 3899 843c 2b52 17be 6333 f8bd 6888 d23d
000001e0: 24ec 26bd 1903 d03c 1858 1bbe 13cb 09bd
000001f0: 3bc5 0dbe 24c7 e5bd 3ecc ed3d 5724 02be
00000200: fe5e a1bd 3961 263d b025 09bc 39a6 9abd
00000210: 776c 753d e419 c83d 73bb 7bbd 0e9b 003d
00000220: c738 013e f2fc 803c 6fd0 8bbc 78d1 b4bd
00000230: 840b 843d 0ee2 ccbd cd8b e6bd e05c 41bd
00000240: 76b0 ee3d 04fe b73d efd3 ec3d 001d 993c
00000250: 2e68 0a3e b3d1 0d3e da7e cd3d 6c6e 103e
00000260: 3c41 a6bc 6aea 9c3c 011b fa3d 2b5b 0b3e
00000270: 7dfb 45bc 904f fa3d 0646 0ebd 6b27 debc
00000280: 6be9 233d e24a f9bd 2c43 43bd 1be5 b4bd
00000290: 3946 acbc ad29 16be f497 9c3d f0b2 fabc
000002a0: 8004 293b c822 eb3c 645c e63d 6e72 143e
000002b0: 6833 db3c 90bf 0f3e 405b 863b ffc2 c23c
000002c0: 2403 b1bd 5277 9bbd 0d3e 02be fe65 9a3d
000002d0: ac73 1bbe 50cf 15be e1ae 05bd 7db6 0a3c
000002e0: d2c6 d5bd 8300 043e 304a f73d a0d5 b2bd
000002f0: c03b 3e3b 50f2 0cbc c195 e4bc e07d f7bb
00000300: 7961 78bd 18e6 ce3c 50b4 bdbd 7849 ac3d
00000310: dcc0 7f3d 178b 1fbe f901 043e b666 1e3e
00000320: 8c6b 763d ecd3 4a3d 025b 10be 8eeb ea3d
00000330: b6ee 923d 40f2 4d3b 7084 533d e60c 1cbd
00000340: 22a6 b43d a045 01bc 56f5 93bd 58bc 81bd
00000350: 60ff 2b3c 3454 73bd e01b 943b 72e8 fbbd
00000360: d07a 89bc c80f f8bc 8e39 c13d c008 d93b
00000370: 40c8 50bb 08e2 62bd 540c 71bd 5fb0 063e
00000380: 5123 b1bd fd9f 1abe c0c0 9a3b 6060 683d
00000390: d8bf 543d dea4 efbd c8b9 b2bc 986a cabc
000003a0: 01ab 1a3e 1a0c 0ebd f727 043e 3878 c23c
000003b0: 4bc5 f9bd 5076 e5bd a172 09be cc21 9c3d
000003c0: 7bb9 993c 92d9 8b3d 4e00 b73d bb65 a83b
000003d0: ba43 71bd 527e 56bc 40a2 88bb ef73 48bd
000003e0: 38a1 ad3d 498d 7abd 4067 1fbb 76b1 c7bd
000003f0: c3e2 cdbd f750 c93c b47a f43d c711 0fbe
0.017717304 0.09014466 -0.10300646 0.039577782 -0.02185495 -0.10035245 -0.07304704 -0.13537955
0.12287383 0.10407747 0.12724748 -0.004218278 0.064931914 -0.057452988 -0.0777314 0.1494588
-0.11569563 0.06089733 -0.07662381 0.08838533 -0.12514852 0.14917651 0.0289813 0.09914976
0.14478663 -0.13196504 -0.07283838 -0.14329058 0.009314533 0.0781848 0.06813668 0.036837183
-0.03515962 -0.0014405698 -0.010325968 0.059702788 -0.06426277 0.018298887 -0.068929546 0.0770597
0.09473905 -0.05438846 0.009250353 0.15304643 0.012807412 -0.05106264 -0.057195324 0.023489516
-0.015505645 0.059574764 -0.14607902 0.11709222 0.10684131 0.14187482 0.09382526 0.1450834
-0.074398495 -0.06769549 -0.03379974 0.15297112 0.086278036 -0.14465885 -0.039739404 0.07486831
0.018522112 -0.095790386 -0.0037984725 -0.01702045 -0.08696065 -0.10118675 -0.016200947 -0.09979867
0.13748088 -0.10124509 -0.09901423 0.10126591 -0.08311126 -0.084255345 0.035540298 0.018282024
-0.017821537 -0.08039648 -0.06872564 -0.13805954 -0.062233184 -0.007830392 -0.037519224 -0.045001514
-0.056917816 -0.06524475 -0.05608968 0.1407702 -0.11211552 0.07457438 -0.00405502 -0.008877443
0.04236914 -0.05501242 -0.11917079 -0.058913317 0.032538127 0.14620578 -0.02676897 0.12460005
-0.14245245 0.090803206 0.044324335 0.12489277 0.14170487 -0.05944076 0.021958737 -0.04444885
0.074357376 0.03110765 -0.012549147 -0.026500138 0.016186342 -0.14777438 -0.12119176 0.10279924
-0.040752545 0.025392102 -0.15170324 -0.033640932 -0.13844769 -0.11219624 0.11611222 -0.12709175
-0.078794464 0.040620063 -0.008370802 -0.07551236 0.059917893 0.09770563 -0.061458062 0.03139787
0.12619315 0.015745614 -0.017067162 -0.088290155 0.06447509 -0.10004054 -0.11257134 -0.047207713
0.11654751 0.089839965 0.115638606 0.018690586 0.13516304 0.13849525 0.10033961 0.14104623
-0.020294778 0.019154746 0.12212182 0.13608997 -0.012083885 0.122222066 -0.03473475 -0.027118405
0.040017527 -0.12172486 -0.047671482 -0.08832761 -0.021029579 -0.14664336 0.0764617 -0.030602902
0.0025790036 0.028703108 0.11248091 0.14496776 0.02675791 0.14037919 0.0041002333 0.023774622
-0.08643177 -0.07591118 -0.12718983 0.07538985 -0.15180844 -0.14629865 -0.03263748 0.00846636
-0.104383126 0.1289082 0.12074697 -0.08732152 0.0029027313 -0.008602694 -0.02790344 -0.0075528473
-0.060639832 0.025256202 -0.092629075 0.084124506 0.062439784 -0.15580402 0.12891378 0.15468869
0.06016116 0.04951851 -0.14097217 0.1147071 0.07174437 0.003142491 0.051639974 -0.03809824
0.0882075 -0.007890135 -0.072245285 -0.06334752 0.010497898 -0.059406474 0.0045199245 -0.12300195
-0.016782194 -0.030280963 0.09434806 0.0066233575 -0.003185764 -0.05539134 -0.058849648 0.13153218
-0.08649314 -0.15100093 0.0047226846 0.056732535 0.05194077 -0.11701368 -0.021817103 -0.024709031
0.15104295 -0.03467951 0.1290587 0.023738965 -0.12195834 -0.11204207 -0.13422634 0.07623634
0.018765202 0.068286076 0.08935605 0.0051390803 -0.05890248 -0.013091641 -0.0041697323 -0.048938688
0.08478016 -0.061169896 -0.0024323016 -0.09750645 -0.10053017 0.02457474 0.11937466 -0.13971625

layers.2.bias f4 [40]
00000000: 8a62 013e 45ab b5bb 37ae 023d 9a5b cdbd
00000010: 9ab5 ffbd ba8d cabd ff9d 95bd 4b9b 49bd
00000020: 2125 3c3d a8d4 9fbc 1be3 7d3d a747 f63c
00000030: e099 a4bd 7e73 dabd 9a77 123e 662e d0bd
00000040: e073 0a3d 026d 813d f872 96bd 26c4 833c
00000050: ac13 9a3d 7d29 35bd a257 83bd cbd7 13bd
00000060: 861a 043e 5086 fc3c 0057 e83d dd37 3abd
00000070: 4e79 e9bd 8d1f acbd f195 8ebd 2e06 14be
00000080: 6082 99bd 6028 cabb cd8f 58bc d63d 3dbd
00000090: 5638 a43d 6eaa 19be f078 0abe 5248 9b3d
0.12635246 -0.0055440986 0.031904425 -0.10027237 -0.124858096 -0.098903134 -0.07305526 -0.049220365
0.045933846 -0.019510582 0.061984163 0.030063463 -0.08037162 -0.1066656 0.14303437 -0.101651
0.033801913 0.0631962 -0.07346147 0.016084742 0.07523283 -0.04422902 -0.06413199 -0.036094468
0.12900743 0.030825764 0.11344719 -0.04546343 -0.1140009 -0.08404455 -0.06962193 -0.14455482
-0.0749557 -0.006169364 -0.0132178785 -0.04620155 0.08018558 -0.1500642 -0.13522696 0.075821534

layers.4.weight f4 [1, 40]
00000000: b9fd e63c c7b0 3bbd f5d8 75bd e957 013d
00000010: 9f9e b0bc e4df 313d 7d89 62bd ac57 123e
00000020: e957 ee3c 1929 1fbe 5e48 0abc d212 14be
00000030: 6ceb 863d 84fe 923d 5836 22be 0199 ee3c
00000040: e8a5 21be 3cbf cd3d 2e91 1dbe a247 6d3c
00000050: e4db 17be 972a 763d a1bf 9e3d 2e45 12bc
00000060: 9b59 14be 4037 b43b 7832 afbd 532c 12be
00000070: a47f e3bd bcc7 15be 2d6e 13be b70f 583d
00000080: 12b9 18be 9aa0 1dbe 50c2 ed3d 6806 e33c
00000090: 003d f23d 326c 0fbe 40a8 e63d 286d 0c3e
0.028197156 -0.045822885 -0.06002136 0.03157798 -0.021560011 0.04342641 -0.0553069 0.14291257
0.029094653 -0.15543021 -0.008440105 -0.14460304 0.06587872 0.07177451 -0.15841043 0.029125692
-0.15785944 0.10046241 -0.15387413 0.014482411 -0.14829975 0.06009921 0.07751394 -0.008927627
-0.14487307 0.0054997504 -0.08554548 -0.14274721 -0.1110833 -0.14626974 -0.14397497 0.05274936
-0.14914349 -0.15393296 0.11609328 0.027713016 0.11828041 -0.14006117 0.1126256 0.13713515
