checkpoints/iter_60000.pt (torch_old, 8192 bytes, 5 tensors)

layers.0.weight f4 [40, 1]
00000000: 6e90 a0be 2c8e b73c 4423 d83d 92ac 003f
00000010: 7572 febe 3d45 253c fb49 0fbf 8b8b c63e
00000020: b414 fb3e 5e7a 473f a29e 0fbf 9dd8 17bf
00000030: 66ed e33e 4572 ac3d 5811 cabc fb46 d2bd
00000040: d623 2fbe 1f45 cd3b f0ac 7a3e 27f4 5fbd
00000050: e175 37bf 2f4b c1be 99a7 66bf 398e 24bf
00000060: ca90 3bbf 67c2 183f dbe5 93be 254d 15be
00000070: 91b5 683e 905e 003f 8e16 aabe c75d a13e
00000080: 6fef 2cbd 135f 523f a6eb 053f 2d97 5ebf
00000090: f9e7 523f da3b e43c 8089 433d 6fb5 0bbd
-0.3136019 0.02240666 0.105536014 0.5026332 -0.496967 0.0100873085 -0.5597226 0.38778338
0.49039233 0.7792109 -0.5610143 -0.593149 0.44517058 0.08420233 -0.024666473 -0.10267445
-0.17103514 0.0062643434 0.24480033 -0.0546762 -0.71664244 -0.37752673 -0.90099484 -0.64279515
-0.73267806 0.59671634 -0.28886303 -0.1458021 0.22725512 0.5014429 -0.33220333 0.3151686
-0.04222053 0.8217632 0.52312696 -0.86949426 0.8238521 0.02786057 0.047738552 -0.034108575

layers.0.bias f4 [40]
00000000: 0974 05be 38ed 8b3e 8397 dc3d fabf d0be
00000010: 2263 1abf 580f d43d 5f01 acbf 5614 4ebf
00000020: a645 0dbf 779c 37c0 47a3 f7bf 3c63 bcbe
00000030: e398 bebf 45a3 0d3e 921e e63d 5527 4d3e
00000040: 6f7e 803d 42fb 0cbd b671 debd 0ba9 4a3e
00000050: 7a5b 06c0 a882 91bf c5eb e4bf 5d9b 0abf
00000060: 4ca0 40c0 a38a 7fbf 51a3 193e d2f0 003f
00000070: 0f41 153d f6f0 05c0 59c2 da3d 0ac5 5bbe
00000080: e678 c93d 9e7f 15c0 6b9c acbf e2b7 a9bf
00000090: 0c1a f8bf 7a0f 043f 2ce9 9fbe aca9 d83d
-0.13032545 0.2732942 0.10771086 -0.40771466 -0.60307515 0.10354489 -1.3437918 -0.8049978
-0.551844 -2.8689249 -1.9346703 -0.3679446 -1.4890407 0.13831814 0.112362996 0.20034535
0.06274115 -0.034419306 -0.108615324 0.19791047 -2.0993333 -1.1367998 -1.7884451 -0.54143316
-3.0097837 -0.9982092 0.15003707 0.5036746 0.036438998 -2.092832 0.106816 -0.21461883
0.09837513 -2.3359141 -1.3485235 -1.3259242 -1.9382949 0.51586115 -0.31232584 0.10579237

layers.2.weight f4 [40, 40]
00000000: fffc 47bd c249 f7be a183 a83e f734 0abe
00000010: 1c1c febd 9985 68bf 39c1 b9be d9f3 9ebe
00000020: 73e0 53bd c4e7 0b3d ef42 8c3e 0a2d dd3d
00000030: 3903 82bc c87a f2be 360e 1dbf 031f d43e
00000040: 2233 3dbf e97f 393f 3c04 95be 7d12 823e
00000050: 9d43 993e 3f17 303f d247 2c3e ddd0 2a3e
00000060: f76c 833e c93e 9dbe 02cf 553e e65b 61be
00000070: 4918 2abe 6859 f43b df13 b8bc 6821 f5bd
00000080: 2bce 323d fdf7 e4bd f9dc f7bd 527b 813e
00000090: fd3f 34be 2943 a4bf ef2a 8dbd 9e3a 9e3f
000000a0: 829c 913e efad 683f e2e6 a9c0 c979 103e
000000b0: ae64 12bd 59ef 1a3d 0daf 21bf 1ddd f13c
000000c0: ed18 dbbb 7691 943d 7ced 7ebf a252 983e
000000d0: 9ecf da3d 56c9 efbf e00b 65bf eece 69bc
000000e0: 4385 aebf cbec 303e 72e0 eabe e452 0c3e
000000f0: c4f9 0bbf 6177 a7be 5355 a7be 1e1f 213d
00000100: 2af2 1fc0 0082 b4bd b6b3 2e3f 489b f1bd
00000110: cfc3 9ebf 003b cfbd 690c 803e b92f 03be
00000120: ba6f f03e bab8 b1bd 0bc4 adbd 2f58 37be
00000130: 6fa8 9ebd 41eb 44bf b492 113d a00f 89be
00000140: 3319 7d3e 7e1b 5a3f 7403 103f 8147 b1be
00000150: 1448 b0bd a7ff 27bd 522b 2fbf 90a0 2fbf
00000160: 6ba9 4abf 105c a4bf 8dd0 4bbf f302 963e
00000170: f9b7 37c0 df86 ef3e 16b9 0abf 692e 8e3d
00000180: f822 cbbe cb7a 5cbf 543f 5a3e b01a cd3e
00000190: 3a48 d7bd 3b82 1e3f d354 5dbe 14b8 d33d
000001a0: 7ce0 17c0 61e9 56bf cc80 e83e 25d9 08be
000001b0: 9ff4 cf3f 7c21 3f3e a736 953e e02c 6f3e
000001c0: 6e88 073f f111 8cbf 71ef 4f3e 1dab 7cbe
000001d0: f0c6 8cbf c11d 04c0 6333 f8bd 407d 053f
000001e0: b945 50be 52c5 553f 4ed1 36be 1a97 183d
000001f0: 96d3 9cbe 8412 963e 5ec5 21bd 5549 7ebe
00000200: 9ef4 c4bb 52d7 303e f296 24be 5a16 7ebe
00000210: 70ae 1a3e 7455 3a3e 5654 763f 82c4 5abe
00000220: 625b 7a3e 0631 bcbd 9667 113e 079c c8bf
00000230: df50 b9bd 1ade 84be a752 8cbe 04be 61be
00000240: b311 1fbd 8072 7f3d 4a17 53bf 081b 77bf
00000250: b35a 8e3c 9327 c63e d5ee 7ebd 6991 963e
00000260: 78aa a03f a3bb 443d 67c0 dc3d e701 00bd
00000270: f41e 4b3c 623d e9bc 0646 0ebd 07f4 a83e
00000280: 5ed1 1b3e 2ab1 0bc0 bb81 91c0 1be5 b4bd
00000290: b5ea 8a3e 3cc2 52c0 e129 71be f0b2 fabc
000002a0: 8004 293b c822 eb3c b3c1 20bf 8148 883e
000002b0: 6833 db3c 3c28 6cc0 0daf 0fc0 0efb 46be
000002c0: 0d6b 42bf cd66 04bf 8b43 5cbe 2ca4 d63e
000002d0: 77e0 35bf db3b 64be 7f5f cbbd b8f2 d43e
000002e0: 70ee fdbf 8300 043e a575 dd3e 721c 213f
000002f0: c03b 3e3b 50f2 0cbc e505 af3d e07d f7bb
00000300: b9e0 033e 18e6 ce3c 50b4 bdbd 27ef 293e
00000310: dcc0 7f3d ca93 b5be f901 043e 6a33 bcbe
00000320: fa12 0d3d c608 db3c 3c83 23be 706a aa3d
00000330: 06c2 3c3d e7ec 4c3c 7cc1 f93c e60c 1cbd
00000340: f78a 683d a045 01bc c8a9 bdbd da4e b2bd
00000350: 60ff 2b3c 5f52 babd add4 7dbd 92f0 36be
00000360: 09f5 ecbc e0cc 75bd 4c9b 803d 9751 46bd
00000370: a8df babc 3a43 a2bd 5006 adbd 71bd d83d
00000380: 17e0 fbbd 0378 3abe 3665 27bd 622b 1f3d
00000390: af29 a73c dea4 efbd 98e1 35bd e861 66bd
000003a0: 83f8 c33d 1a0c 0ebd f727 043e 3d6f fab9
000003b0: 4bc5 f9bd 38d4 abbd a172 09be 77e0 cb3a
000003c0: 955d 01bc fd73 893d c61b a7bc 3f5c 5e3e
000003d0: ba43 71bd 5a87 933e 40a2 88bb 710a 71be
000003e0: 75a4 953e 0b52 dabe 4067 1fbb 76b1 c7bd
000003f0: 5377 e53d 36ce 533d cb17 c53e 8d32 a5bf
-0.04882526 -0.4829846 0.32912925 -0.13496767 -0.12407705 -0.90828854 -0.3628023 -0.31045416
-0.051727723 0.034156576 0.27394816 0.10799606 -0.015870677 -0.473593 -0.6134981 0.4142991
-0.7390615 0.724608 -0.29104793 0.2540473 0.29934397 0.6878547 0.16824272 0.16681238
0.2566907 -0.30711964 0.20879748 -0.22007713 -0.16610827 0.007456947 -0.022470413 -0.11969262
0.04365365 -0.111801125 -0.12102694 0.25289398 -0.17602535 -1.2832996 -0.068929546 1.2361639
0.28439718 0.908904 -5.309434 0.14108957 -0.035740547 0.037825916 -0.6315773 0.02952438
-0.006686321 0.07254307 -0.9958112 0.29750544 0.10684131 -1.8733318 -0.89471245 -0.014270527
-1.3634418 0.1727783 -0.45874363 0.13703495 -0.5467799 -0.32708266 -0.32682285 0.039336316
-2.4991555 -0.08813858 0.6824297 -0.11797196 -1.2403506 -0.10118675 0.25009468 -0.12811173
0.4696024 -0.08677812 -0.08484658 -0.17904733 -0.0774697 -0.7692147 0.035540298 -0.26769733
0.24716644 0.851982 0.5625527 -0.34624866 -0.08607498 -0.041015293 -0.68425477 -0.68604374
-0.7916476 -1.2840595 -0.796151 0.29299125 -2.8706038 0.46782586 -0.5418867 0.06942446
-0.39675117 -0.8612487 0.2131322 0.40059423 -0.10511823 0.61917466 -0.21614389 0.103378445
-2.3730764 -0.8394986 0.45410764 -0.13364084 1.6246527 0.18665117 0.2914326 0.23356962
0.5294255 -1.0942975 0.20306183 -0.2467465 -1.0998211 -2.064316 -0.12119176 0.5214424
-0.20339097 0.8350421 -0.17853281 0.037253477 -0.30630177 0.29311 -0.039494865 -0.24832661
-0.006010606 0.17269638 -0.16073206 -0.24813214 0.15105605 0.1819666 0.96222436 -0.21364024
0.24448922 -0.09189038 0.14199671 -1.5672616 -0.09048628 -0.259507 -0.2740681 -0.22045141
-0.03883524 0.062365055 -0.8245741 -0.9652562 0.017377233 0.38702068 -0.062239487 0.29407814
1.2552023 0.048030507 0.10778885 -0.031251814 0.0123975165 -0.028471652 -0.03473475 0.32998678
0.15216586 -2.1826882 -4.5470862 -0.08832761 0.27132192 -3.2931051 -0.23551132 -0.030602902
0.0025790036 0.028703108 -0.6279556 0.26617816 0.02675791 -3.6899557 -2.2450593 -0.19431707
-0.75944597 -0.5171936 -0.2151014 0.41922128 -0.7104563 -0.22288458 -0.09930324 0.4159143
-1.983839 0.1289082 0.43253818 0.6293403 0.0029027313 -0.008602694 0.08546046 -0.0075528473
0.12878694 0.025256202 -0.092629075 0.16595136 0.062439784 -0.35464317 0.12891378 -0.36757976
0.034441926 0.026737582 -0.1596803 0.083210826 0.046083473 0.012507654 0.030487768 -0.03809824
0.056773152 -0.007890135 -0.09260899 -0.08706446 0.010497898 -0.09097742 -0.0619704 -0.17865208
-0.028925436 -0.060009837 0.062796205 -0.048417654 -0.022811726 -0.07922979 -0.0844847 0.10583008
-0.12298601 -0.18209843 -0.040868007 0.038859732 0.020405618 -0.11701368 -0.044404596 -0.056245714
0.09568884 -0.03467951 0.1290587 -0.00047766595 -0.12195834 -0.08390087 -0.13422634 0.0015554567
-0.007895847 0.06711576 -0.020398986 0.21714877 -0.05890248 0.28814203 -0.0041697323 -0.2353914
0.29227033 -0.4264072 -0.0024323016 -0.09750645 0.112044 0.05171033 0.38494715 -1.2906052

layers.2.bias f4 [40]
00000000: bc37 96bf 6267 3e3f a7ff 2d3f 4a39 9abf
00000010: 574b 933e 8f93 1bbe 9cb9 d03d df91 bd3e
00000020: df4f d1ba f576 51bd 9b70 41bf 1e5d 983e
00000030: c151 fdbd 637a e3bf e6a8 1d3f a282 bfbf
00000040: d2ea 3b3e 8db0 d7bc ecbb 5dbe e9c5 01bf
00000050: 1080 373e 88a9 f2bd 699f cebd 9765 78bf
00000060: fcd4 4cbd 6b25 53bd 6ffb 89be cd3c 5a3f
00000070: 25a7 fbbd 4729 0abe f5c3 393d 9ecf 88bf
00000080: f6ae 02be 8692 92bd 6c0b 1bbf 16df bdbd
00000090: 97bc 393f baba 483e 3202 c5bd 9cc9 013f
-1.1735759 0.743765 0.6796822 -1.2048733 0.28768417 -0.15193008 0.10191652 0.37025353
-0.0015969238 -0.051138837 -0.7556245 0.29758543 -0.12369109 -1.7771724 0.61585844 -1.4961741
0.18351296 -0.026329303 -0.21653718 -0.5069261 0.17919946 -0.11848742 -0.10088999 -0.97030014
-0.050007805 -0.051549356 -0.2694964 0.85249025 -0.1228774 -0.13492309 0.045352895 -1.068836
-0.12762055 -0.071568534 -0.60564303 -0.09271066 0.7255339 0.1960248 -0.09619559 0.50698256

layers.4.weight f4 [1, 40]
00000000: 209c 763e 8199 2abf 2a9d f6be 5414 ee3e
00000010: e393 90be adab f9bb 9fdf 0abe b5c9 3e3f
00000020: 4ce5 513f 5e02 05be e36f 08bf 32cf 17bf
00000030: e1a1 df3c 1003 083f 3d96 4fbe 132c 053f
00000040: fe46 0ebf 4557 2d3d cd84 21c0 389b 0abf
00000050: 61d0 86be 1d8c 613c cf77 273d 3dca abbe
00000060: f47b abbf 6838 a4bc 102c 26bf 77b6 09bf
00000070: 1c3c 7fbf 64d3 10bf ee09 bdbd 5f67 433f
00000080: f4e3 b7bd 2d7c afbd 9497 c43b 59cb cdbc
00000090: be9d 5c3f 7b66 7ebd 9cba 003f fc31 a33f
0.24082994 -0.6664048 -0.48166782 0.46499884 -0.2823783 -0.0076193423 -0.13561867 0.7452653
0.81990504 -0.12989184 -0.53295726 -0.5930053 0.02729887 0.53129673 -0.20272155 0.52020377
-0.55577075 0.042319555 -2.5237305 -0.54143095 -0.26330855 0.013766316 0.040885743 -0.33552733
-1.3397202 -0.020046428 -0.64910984 -0.53794044 -0.99701095 -0.56572556 -0.092304096 0.76329607
-0.089790255 -0.085686065 0.005999515 -0.025121378 0.86178195 -0.06210945 0.50284743 1.2749629
