checkpoints/iter_80000.pt (torch_old, 8192 bytes, 5 tensors)

layers.0.weight f4 [40, 1]
-0.1806037 0.039232954 0.114380114 0.5020388 -0.5628618 0.012415501 -0.59404814 0.41716343
0.44665214 0.8007015 -0.6421979 -0.49908772 0.46578848 0.06884332 -0.021160448 -0.14398296
-0.16714998 0.0062643434 0.26845473 -0.03617223 -0.79090786 -0.50337815 -0.9911567 -0.663627
-0.81657135 0.57586014 -0.38878223 -0.14241415 0.22518156 0.53688663 -0.3487222 0.34370974
-0.0415469 0.85209966 0.50409114 -0.9379841 0.8569186 -0.018796502 0.047738552 -0.03731137
00000000: 2df0 38be bcb2 203d 1f40 ea3d 9d85 003f
00000010: b617 10bf 636a 4b3c 8a13 18bf 7296 d53e
00000020: 97af e43e c6fa 4c3f 1567 24bf 6d88 ffbe
00000030: d47b ee3e bafd 8c3d ad58 adbc 4570 13be
00000040: 5d29 2bbe 1f45 cd3b e672 893e 5529 14bd
00000050: f078 4abf 64dd 00bf 72bc 7dbf 76e3 29bf
00000060: d20a 51bf 926b 133f 770e c7be 04d5 11be
00000070: ff95 663e 6771 093f b78b b2be b9fa af3e
00000080: 152d 2abd 3423 5a3f 1e0c 013f ba1f 70bf
00000090: 045f 5b3f 1ffb 99bc 8089 433d cfd3 18bd

layers.0.bias f4 [40]
-0.056674786 0.24968313 0.081151225 -0.37161696 -0.4857657 0.06931679 -1.3461436 -0.84034824
-0.5629738 -3.05722 -2.0718386 -0.27563977 -1.5635914 0.1174856 0.12667127 0.29964226
0.08645024 -0.034419306 -0.19720425 0.13710201 -2.2682152 -1.1943791 -1.7072784 -0.40334255
-3.1836658 -1.0105023 0.2069518 0.41867983 -0.09865175 -2.2853374 0.15847284 -0.24607356
0.11538064 -2.4109097 -1.4075763 -1.2078006 -1.9364908 0.57352114 -0.31232584 0.1378574
00000000: d223 68bd efac 7f3e 9d32 a63d 9444 bebe
00000010: 48b6 f8be f6f5 8d3d 6f4e acbf 1021 57bf
00000020: 0d1f 10bf 7ea9 43c0 0199 04c0 a820 8dbe
00000030: c323 c8bf 4a9c f03d 1db6 013e b66a 993e
00000040: d30c b13d 42fb 0cbd e9ef 49be 7864 0c3e
00000050: 702a 11c0 6ae1 98bf 1988 dabf ea82 cebe
00000060: 2ec1 4bc0 2458 81bf 2ceb 533e 345d d63e
00000070: ee09 cabd f842 12c0 b446 223e b5fa 7bbe
00000080: af4c ec3d 584c 1ac0 762b b4bf 3699 9abf
00000090: eede f7bf 48d2 123f 2ce9 9fbe 7e2a 0d3e

layers.2.weight f4 [40, 40]
-0.050689135 -0.16296177 0.17415711 -0.2931598 -0.15799674 -0.32494497 -0.5567458 -0.4666137
-0.20901352 0.034156576 0.26619452 0.09604666 -0.015870677 -0.6114371 -0.6509714 0.10446729
-0.6831247 0.724608 -0.44758883 0.94158864 0.15016657 0.628124 0.04063757 0.14159594
0.21925789 -0.46314117 0.31077695 -0.021837112 -0.32672688 0.03913216 0.061365794 -0.2768333
0.20269619 -0.11168832 -0.17009342 0.18388402 -0.28486317 -1.4125881 -0.068929546 1.4071516
0.2346542 1.3303217 -6.2459903 0.08705831 -0.15992655 0.92815024 -0.75852334 -0.013384205
-0.058123413 0.07254307 -1.2537796 0.18823163 0.10684131 -1.8624107 -0.4953599 -0.17338294
-1.0394576 0.1727783 -0.54191226 -0.13042685 -0.4320714 -0.062419496 -0.4270172 -0.08089868
-2.578722 -0.13630715 0.9187048 -0.28882134 -1.7826395 -0.10118675 0.42371684 -0.18014564
0.4876174 -0.08677812 -0.11660722 -0.29861978 -0.121703885 -1.1280948 0.035540298 -0.2681014
0.11936826 1.079169 0.56017834 -0.14043115 -0.33184043 0.051933445 -0.44281644 -0.8202358
-0.8694582 -1.4482894 -0.45699006 0.10060271 -3.1278288 0.17755891 -0.25815308 -0.062097907
-0.19300614 -0.8612487 0.68499804 0.46070307 0.4107459 1.2221415 -0.2343839 -0.09532668
-1.7891198 -1.0445961 0.4609119 0.17249478 1.9111117 0.07936544 0.3024628 0.5713043
0.4751067 -1.0933489 0.2482541 -0.44265017 -1.23032 -2.1182277 -0.12119176 0.5483808
-0.20339097 0.6646561 -0.34159553 0.08827049 -0.30630177 0.026700065 -0.039494865 -0.2847637
0.033512197 0.23809412 -0.16073206 -0.24813214 0.26607507 0.18061239 1.0184413 -0.76317155
0.49427867 -0.09189038 0.19573842 -0.70029455 -0.09048628 -0.259507 -0.2740681 -0.22045141
-0.03883524 0.02696578 -0.8245741 -0.57895696 -0.05021856 0.4692655 -0.062239487 0.36272427
2.2771156 0.09697189 0.113909155 -0.031251814 0.014534316 -0.3634548 -0.03473475 0.28121078
0.2660663 -2.9161065 -4.153625 -0.08832761 0.20488417 -2.8619301 -0.22330652 -0.030602902
0.0025790036 0.028703108 -0.5400991 0.2733316 0.02675791 -4.2530084 -1.8707105 -0.044279724
-1.2042611 -0.5171936 -0.2151014 0.18560576 -0.62029195 -0.29106972 -0.15957244 0.36305612
-1.6951141 0.1289082 0.5973475 0.5333357 0.0029027313 -0.008602694 0.29395375 -0.0075528473
0.6024943 0.025256202 -0.092629075 0.093534455 0.062439784 -0.37987083 0.12891378 -0.75345814
0.034441926 0.026737582 -0.1596803 0.083210826 0.046083473 0.012507654 0.030487768 -0.03809824
0.056773152 -0.007890135 -0.09260899 -0.08706446 0.010497898 -0.09097742 -0.0619704 -0.17865208
-0.028925436 -0.060009837 0.062796205 -0.048417654 -0.022811726 -0.07922979 -0.0844847 0.10583008
-0.12298601 -0.18209843 -0.040868007 0.038859732 0.020405618 -0.11701368 -0.044404596 -0.056245714
0.09568884 -0.03467951 0.1290587 -0.00047766595 -0.12195834 -0.08390087 -0.13422634 0.0015554567
-0.007895847 -0.5945342 -0.07205912 0.29265743 -0.05890248 0.19645275 -0.0041697323 -0.093465894
0.4542109 -0.42926168 -0.0024323016 -0.09750645 0.16702521 0.184717 0.61857486 -1.0208979
00000000: 699f 4fbd 73df 26be 3e56 323e 0b19 96be
00000010: e6c9 21be 305f a6be e586 0ebf fee7 eebe
00000020: a407 56be c4e7 0b3d a64a 883e 1cb4 c43d
00000030: 3903 82bc 2487 1cbf 10a6 26bf f2f2 d53d
00000040: 43e1 2ebf e97f 393f 5d2a e5be f40b 713f
00000050: 44c5 193e bccc 203f 9573 263d 87fe 103e
00000060: 2485 603e d720 edbe 281e 9f3e bee3 b2bc
00000070: bf48 a7be 0b49 203d b35a 7b3d 18bd 8dbe
00000080: 978f 4f3e d9bc e4bd f82c 2ebe 184c 3c3e
00000090: 96d9 91be b0cf b4bf ef2a 8dbd 8b1d b43f
000000a0: 3149 703e fb47 aa3f 27df c7c0 a14b b23d
000000b0: c9c3 23be 419b 6d3f 962e 42bf 6d49 5bbc
000000c0: d112 6ebd 7691 943d da7b a0bf cbbf 403e
000000d0: 9ecf da3d 7963 eebf d09f fdbe 4c8b 31be
000000e0: f20c 85bf cbec 303e c3ba 0abf 9e8e 05be
000000f0: 7638 ddbe 96ab 7fbd 00a2 dabe 35ae a5bd
00000100: c809 25c0 1a94 0bbe 3d30 6b3f 64e0 93be
00000110: 882d e4bf 003b cfbd 6af1 d83e 1978 38be
00000120: fda8 f93e bab8 b1bd c4cf eebd b1e4 98be
00000130: e33f f9bd 6965 90bf b492 113d 9644 89be
00000140: 5977 f43d 3622 8a3f d967 0f3f 2fcd 0fbe
00000150: fde6 a9be 2ab8 543d d6b8 e2be f9fa 51bf
00000160: d094 5ebf 8c61 b9bf 9afa e9be cb08 ce3d
00000170: 592e 48c0 01d2 353e a42c 84be 605a 7ebd
00000180: 67a3 45be cb7a 5cbf 085c 2f3f 46e1 eb3e
00000190: 494d d23e 226f 9c3f 5502 70be a23a c3bd
000001a0: e101 e5bf 53b5 85bf a5fc eb3e 79a2 303e
000001b0: 4f9f f43f 598a a23d 67dc 9a3e 0041 123f
000001c0: 2f41 f33e dbf2 8bbf 5336 7e3e 0ba3 e2be
000001d0: 207b 9dbf 0b91 07c0 6333 f8bd af62 0c3f
000001e0: b945 50be e726 2a3f 9ce5 aebe 29c7 b43d
000001f0: 96d3 9cbe 18ba da3c 5ec5 21bd 8ccc 91be
00000200: 1644 093d f2ce 733e f296 24be 5a16 7ebe
00000210: fe3a 883e 74f2 383e 495c 823f 365f 43bf
00000220: 1812 fd3e 0631 bcbd a76f 483e 8146 33bf
00000230: df50 b9bd 1ade 84be a752 8cbe 04be 61be
00000240: b311 1fbd 57e7 dc3c 4a17 53bf 8636 14bf
00000250: fab1 4dbd 9143 f03e d5ee 7ebd ffb6 b93e
00000260: 43bc 1140 3399 c63d 3449 e93d e701 00bd
00000270: 5721 6e3c bf16 babe 0646 0ebd dcfa 8f3e
00000280: d839 883e 7da1 3ac0 7fea 84c0 1be5 b4bd
00000290: 28cd 513e dd29 37c0 77aa 64be f0b2 fabc
000002a0: 8004 293b c822 eb3c ef43 0abf 1ff2 8b3e
000002b0: 6833 db3c a518 88c0 7173 efbf a85e 35bd
000002c0: 3a25 9abf cd66 04bf 8b43 5cbe 700f 3e3e
000002d0: 74cb 1ebf 1707 95be f566 23be 7ee2 b93e
000002e0: 80f9 d8bf 8300 043e c4eb 183f b088 083f
000002f0: c03b 3e3b 50f2 0cbc 1b81 963e e07d f7bb
00000300: 113d 1a3f 18e6 ce3c 50b4 bdbd fe8e bf3d
00000310: dcc0 7f3d 6e7e c2be f901 043e a2e2 40bf
00000320: fa12 0d3d c608 db3c 3c83 23be 706a aa3d
00000330: 06c2 3c3d e7ec 4c3c 7cc1 f93c e60c 1cbd
00000340: f78a 683d a045 01bc c8a9 bdbd da4e b2bd
00000350: 60ff 2b3c 5f52 babd add4 7dbd 92f0 36be
00000360: 09f5 ecbc e0cc 75bd 4c9b 803d 9751 46bd
00000370: a8df babc 3a43 a2bd 5006 adbd 71bd d83d
00000380: 17e0 fbbd 0378 3abe 3665 27bd 622b 1f3d
00000390: af29 a73c dea4 efbd 98e1 35bd e861 66bd
000003a0: 83f8 c33d 1a0c 0ebd f727 043e 3d6f fab9
000003b0: 4bc5 f9bd 38d4 abbd a172 09be 77e0 cb3a
000003c0: 955d 01bc 6533 18bf bb93 93bd 32d7 953e
000003d0: ba43 71bd e92a 493e 40a2 88bb 0c6b bfbd
000003e0: 558e e83e 30c8 dbbe 4067 1fbb 76b1 c7bd
000003f0: a808 2b3e 7426 3d3e ec5a 1e3f c8ac 82bf

layers.2.bias f4 [40]
-1.2848127 0.7885677 0.6976014 -1.374338 0.24542105 -0.15193008 0.040439494 0.5037896
-0.09809984 -0.051138837 -0.85548353 0.31670094 -0.12369109 -1.9881109 0.54350483 -1.6778246
0.23240821 -0.026329303 -0.19870476 -0.5675673 0.26913083 -0.11848742 -0.10088999 -1.214456
-0.025288057 -0.051549356 -0.3432274 0.52152073 -0.10473635 -0.06564619 0.028467147 -1.1607424
-0.12762055 -0.10333244 -0.672679 -0.09271066 0.767478 0.071461536 0.009103321 0.5930314
00000000: be74 a4bf 93df 493f 0196 323f 4fea afbf
00000010: a84f 7b3e 8f93 1bbe e2a3 253d 5bf8 003f
00000020: 92e8 c8bd f576 51bd f800 5bbf a026 a23e
00000030: c151 fdbd 6b7a febf 2223 0b3f f5c2 d6bf
00000040: 6bfc 6d3e 8db0 d7bc 4379 4bbe 174c 11bf
00000050: 84cb 893e 88a9 f2bd 699f cebd 4b73 9bbf
00000060: e628 cfbc 6b25 53bd 80bb afbe 6282 053f
00000070: 0380 d6bd 8271 86bd ef33 e93c 3593 94bf
00000080: f6ae 02be f59f d3bd b134 2cbf 16df bdbd
00000090: 7079 443f 6d5a 923d 1826 153c e8d0 173f

layers.4.weight f4 [1, 40]
0.2487278 -0.8121715 -0.5157423 0.49962702 -0.3739366 -0.0076193423 -0.24792051 0.81052685
0.74087447 -0.12989184 -0.25767645 -0.46685472 0.02729887 0.56920326 -0.11051125 0.8648453
-0.47708735 0.042319555 -2.9340885 -0.40481564 -0.21650685 0.013766316 0.040885743 -0.502383
-1.7343192 -0.020046428 -0.6224432 -0.45214212 -1.1278546 -0.31765023 -0.22895825 0.4050913
-0.089790255 -0.053926587 -0.019415619 -0.025121378 0.86176056 0.027093653 0.56966144 1.2564602
00000000: 80b2 7e3e 79ea 4fbf b007 04bf 1dcf ff3e
00000010: 9e74 bfbe adab f9bb e0de 7dbe b07e 4f3f
00000020: f3a9 3d3f 5e02 05be 2bee 83be 9507 efbe
00000030: e1a1 df3c 4eb7 113f b953 e2bd 8066 5d3f
00000040: cb44 f4be 4557 2d3d 1bc8 3bc0 ff43 cfbe
00000050: f9b3 5dbe 1d8c 613c cf77 273d 2c9c 00bf
00000060: 2cfe ddbf 6838 a4bc 7058 1fbf 2c7f e7be
00000070: 8a5d 90bf 0da3 a2be 0874 6abe 2068 cf3e
00000080: f4e3 b7bd 20e2 5cbd 810d 9fbc 59cb cdbc
00000090: 579c 5c3f 82f3 dd3c 55d5 113f b0d3 a03f
